initial model(on ELU).pth (torch, 10847 bytes, 16 tensors)

fc1.weight f4 [20, 2]
000000 72 40 cf 3e b2 e3 90 be 74 50 eb 3e ce e1 fd 3e
       0.40478855 -0.28298718 0.45959818 0.49586338
000010 d0 b1 b7 3d f0 ab 8f bd 24 9f e1 3e c8 1d d5 bd
       0.08969462 -0.07015216 0.44066727 -0.10406071
000020 f4 e2 ab be a2 30 b2 3e 06 d9 9a be 1e 7b dd 3e
       -0.3357159 0.3480273 -0.302437 0.43257993
000030 e8 11 97 bd d6 db d5 3e be 28 9b be a0 b3 f6 3e
       -0.07376462 0.41769284 -0.3030452 0.48183918
000040 48 4d d2 bd 70 ef c9 3d 6a 80 87 be 30 d6 1f be
       -0.102686465 0.09860122 -0.2646516 -0.1560905
000050 e8 17 5d be f4 9c 99 3e 68 97 e5 be ce b4 8b 3e
       -0.21591151 0.30002558 -0.44842076 0.2728638
000060 0a ae e5 3e 0c 1e b5 3e 78 5a df bd 14 a0 bb be
       0.44859344 0.35374486 -0.109059274 -0.36645567
000070 e0 74 ad 3e 80 03 a1 bd 34 49 f3 3e 20 3e ef 3d
       0.3387823 -0.07861996 0.47516787 0.11681771
000080 18 4d d2 bd b6 b7 a5 3e 84 88 e2 be 5c 4e 9f be
       -0.10268611 0.32366723 -0.44244778 -0.3111447
000090 78 f5 e0 be 5c b8 d7 be 28 79 b1 3d a0 27 f6 bc
       -0.43937278 -0.42132843 0.08665687 -0.030048192

fc2.weight f4 [20, 21]
000000 78 42 23 be 0a 89 8b 3e b0 4c eb be 00 db c5 3d
       -0.15943325 0.2725299 -0.45956945 0.096609116
000010 2a 03 b1 be b8 cc bf 3d 9e 32 dd be a0 32 a6 3d
       -0.34572726 0.09365219 -0.4320268 0.08115125
000020 64 dc bf 3e 6c a6 2e 3e 58 da bf 3d 60 f0 51 bd
       0.37472832 0.17055672 0.09367818 -0.05125463
000030 22 a6 ed be a8 5e 3c 3e a0 43 d5 be 70 fd 56 3d
       -0.46415812 0.18395483 -0.41653156 0.05248779
000040 f0 68 b6 3e 0a c2 a8 3e 74 73 d9 be 4c 9e ad be
       0.35626936 0.3296054 -0.42470896 -0.33909833
000050 ae 3b b8 3e ba 8f d7 3e 80 2d 51 3d fe d8 a8 be
       0.35983032 0.42101842 0.051068783 -0.32978052
000060 20 19 07 be b0 6b e7 bd f0 4f e7 bd 64 0c 56 3e
       -0.13193178 -0.11299837 -0.11294544 0.20903164
000070 90 52 cb bd 68 6e aa bd 20 87 a7 bc 40 a9 eb 3e
       -0.09927857 -0.083218396 -0.020450175 0.46027565
000080 90 39 bc bd 78 a4 56 be e0 74 53 3e b2 56 d2 3e
       -0.09190667 -0.20961177 0.20650053 0.41081768
000090 f0 6c 89 be 4c 35 33 be 60 5c a1 3d ae 72 ef 3e
       -0.26840925 -0.175008 0.07878947 0.4676718
0000a0 30 f6 6f 3d 04 de 85 3e c0 bf 69 3c e8 bc 28 be
       0.058584392 0.26145947 0.014266908 -0.16478312
0000b0 e8 8e aa bd 18 52 9f 3d 48 1a 92 be 02 a6 ac be
       -0.083280385 0.0777933 -0.28535676 -0.33720404
0000c0 40 fd 53 bd 5c 7d a8 3e be cf a9 3e 98 31 dd bd
       -0.05175519 0.32908142 0.33166307 -0.10800475
0000d0 3c b5 6d 3e b0 55 7b be 48 82 8b 3d 80 b1 20 3e
       0.23213667 -0.24544406 0.068119586 0.15692711
0000e0 80 e4 62 be 70 5b 45 3e f6 ad aa be e4 f5 41 be
       -0.22157478 0.19273162 -0.33335847 -0.18941456
0000f0 30 b9 35 be 98 d4 eb 3e 6c fd e3 3e b8 45 73 be
       -0.17746425 0.46060634 0.44529283 -0.23757064
000100 24 a0 55 3e 30 2d 23 be 86 74 a0 3e f4 c5 66 3e
       0.2086187 -0.15935206 0.313389 0.2253645
000110 4c 3f 64 3e 2e 73 d1 3e 7e 68 fc be 90 c1 ec 3d
       0.22289771 0.40908188 -0.4929847 0.115603566
000120 26 e5 ee 3e e0 c4 8c bc 60 8a ee 3d 00 d5 11 3c
       0.466592 -0.017183721 0.11647487 0.008900881
000130 1a e4 ae 3e 94 e9 a5 be b4 e6 ca 3e 34 2a 42 3e
       0.34158403 -0.32404768 0.39629138 0.18961412
000140 48 6b e4 bd 90 b7 3b be 50 e1 d1 3d 70 c8 c0 bd
       -0.11153275 -0.18331742 0.10248053 -0.094132304
000150 de 1b b9 be 50 f4 4a be 40 c8 e4 3d d2 86 9e 3e
       -0.36154073 -0.1981976 0.11171007 0.30962235
000160 a4 db 16 be 08 65 b0 3e d4 f9 21 3e 3e 4a 92 be
       -0.14732224 0.3445208 0.15817958 -0.28572267
000170 b8 80 94 3d 50 c6 35 3d 22 21 c6 3e 00 cf 68 3b
       0.07251114 0.04437858 0.38697153 0.0035523772
000180 d0 d2 54 bd 7c 67 8a 3e 1a e1 b6 be d0 1d f9 3e
       -0.05195886 0.27032077 -0.35718614 0.48655558
000190 68 29 d2 be 00 9f 26 3c 00 07 85 bd 54 74 55 be
       -0.41047215 0.0101697445 -0.06495476 -0.20845157
0001a0 c0 6b 01 bd 40 df 79 3e 10 cd 36 be 7e 7a 82 3e
       -0.0315969 0.2440157 -0.17851663 0.2548408
0001b0 7e 37 e9 be 80 1a 76 bd fc 0c 80 3e 20 a5 a7 3c
       -0.4555015 -0.060083866 0.25009906 0.02046448
0001c0 60 7e c3 3c 68 6e 8c bd 20 50 e7 bd 10 22 81 bd
       0.023863971 -0.06856996 -0.112945795 -0.06305325
0001d0 00 51 f5 3e ca ec 88 be 1e c5 8c be 8c d7 fe be
       0.4791336 -0.26743156 -0.27494138 -0.49773824
0001e0 d0 ab f3 be 40 2d ad 3e 70 f4 30 3e 1c 73 e7 be
       -0.4759202 0.33823586 0.17280746 -0.4520501
0001f0 00 f1 14 3e 90 f1 e2 bd ac 41 69 3e 20 df b2 3d
       0.14545059 -0.11081231 0.22778958 0.08733964
000200 2e fb b3 be a2 0d be be 44 d1 38 3e 8c f6 ef be
       -0.35152572 -0.37119776 0.18048579 -0.46867788
000210 ba 93 d8 be 50 9e 6a be ba a0 cb 3e 28 42 94 3d
       -0.42300206 -0.22911954 0.39771062 0.07239181
000220 08 b9 ea 3e 62 d3 df 3e 80 01 a1 3b dc 1f 59 3e
       0.45844293 0.4371596 0.004913509 0.2120356
000230 3e 27 fc be e0 95 3f be 94 61 7a 3e de 0d b0 3e
       -0.4924869 -0.18709517 0.24451286 0.3438558
000240 00 0b e8 3c dc 67 84 3e 20 3e 7a bd fe 5c b6 3e
       0.028325558 0.25860488 -0.061094403 0.35617822
000250 80 f4 14 bc 00 db 71 bc 22 5c 94 be 2c 46 b9 3e
       -0.0090914965 -0.014761686 -0.28976542 0.3618635
000260 f8 ca 23 3e d8 4c e0 be b0 1f 12 3d 44 2b 44 be
       0.15995395 -0.43808627 0.03567475 -0.1915713
000270 14 8c c1 be b0 e2 a4 be d2 4c a3 be e0 cf 3b bd
       -0.37802184 -0.322042 -0.31894547 -0.045852542
000280 b0 ba cc 3d 94 b1 8a 3e 20 cf e0 bd c8 77 9a 3e
       0.09996545 0.27088606 -0.10977006 0.3016951
000290 96 19 fe be 2c a6 e8 3e f0 4e 69 3e 80 cb e0 3b
       -0.49628896 0.4543928 0.22784019 0.0068601966
0002a0 00 1b 4e 3b 00 71 dd be 14 b6 0c 3e c8 fb fa 3e
       0.0031449199 -0.43250275 0.13741332 0.4902022
0002b0 5e 04 8f 3e f4 ac cb be b0 27 ce be da 45 99 be
       0.2793302 -0.3978039 -0.40264654 -0.29936105
0002c0 9a 64 84 3e b0 f3 fb 3d c8 77 08 3e a0 10 46 3e
       0.25858003 0.12302339 0.13326943 0.1934228
0002d0 58 9b be bd 94 96 6d 3e 30 4c 16 bd b4 90 c2 be
       -0.09306973 0.23201972 -0.03669375 -0.38001025
0002e0 e6 8f b8 be 1e f2 8d be 48 60 c3 3e 7e 18 8d 3e
       -0.36047286 -0.27723783 0.38159394 0.2755775
0002f0 00 6f 74 be 64 a5 8e 3e 70 d7 c6 3d a4 96 b8 3e
       -0.23870468 0.27860558 0.0970906 0.3605243
000300 b8 88 81 3d ca 95 ba be 08 fe a8 3e d2 7f ea 3e
       0.06324905 -0.36442405 0.3300631 0.45800644
000310 d4 f8 f5 3e 7c 1c 85 3e c0 6c f3 3c 40 48 40 be
       0.48041403 0.25998294 0.029714942 -0.18777561
000320 e0 e7 12 3d 40 41 9e 3d 98 dc 91 3d 00 40 73 3a
       0.035865664 0.07727289 0.07122153 0.0009279251
000330 28 8d ca bd 90 de d9 be b4 67 b3 3e 7a 6e 95 be
       -0.09890205 -0.42552614 0.35040057 -0.2918585
000340 a4 ac 9d be 90 e7 1c 3d 68 38 cc 3d fc 79 87 be
       -0.30795777 0.038306773 0.09971696 -0.26460254
000350 c8 70 1b 3e 48 3b 5c be 6c 4d 09 3e dc 22 15 3e
       0.15179741 -0.21506989 0.1340844 0.14564079
000360 14 6d f2 be 42 3f 8e 3e f0 f1 0f 3d a8 62 85 3e
       -0.47348845 0.27782637 0.03514284 0.2605183
000370 8c 92 83 be 5c da 77 3e d8 7f fa bd c6 b2 d6 3e
       -0.25697744 0.24204391 -0.122314155 0.41933268
000380 68 8e ba be 10 a9 70 be 50 3c ae 3e f0 28 50 bd
       -0.36436772 -0.23501992 0.3403039 -0.05082029
000390 c4 fb 71 3e d8 ef 50 3e f6 ab c6 3e 88 75 de be
       0.23631197 0.20403993 0.3880307 -0.43449044
0003a0 10 be 10 3d d0 b1 c9 3d e8 62 d4 3d 38 d0 e0 3d
       0.035337508 0.09848368 0.10370427 0.109772146
0003b0 b6 87 d1 3e 28 be f4 be 00 28 dc 3b 70 bd b2 be
       0.40923852 -0.47801328 0.0067186356 -0.34910154
0003c0 e0 d5 20 3e 00 59 a8 3c 80 4c f4 3c 08 07 9d 3e
       0.15706587 0.020550251 0.029821634 0.30669427
0003d0 96 b1 ae 3e 9a ce e1 3e 50 ba 3c 3d f0 d4 af bd
       0.34119862 0.44102937 0.04607612 -0.085855365
0003e0 08 fc c9 3e d0 61 20 bd ce fb fa be f8 09 a2 3d
       0.39450097 -0.03915578 -0.49020237 0.07912058
0003f0 00 2a cd 3a 62 45 e6 3e fe c0 8c 3e 40 cc 95 be
       0.0015652776 0.4497481 0.2749099 -0.29257393

fc3.weight f4 [20, 21]
000000 18 c9 5f be ac 80 ed 3e 3c d3 64 be 46 eb de be
       -0.21854055 0.4638723 -0.22346205 -0.43538874
000010 00 00 4e b7 f8 eb b1 be b0 07 fd bd 32 41 ad 3e
       -1.2278557e-05 -0.34750342 -0.12354982 0.33838803
000020 08 7c b9 bd 48 2e 97 be 90 d8 d7 be 30 91 d9 3e
       -0.0905686 -0.29527497 -0.42157412 0.42493582
000030 1e 91 eb 3e 68 2d ea 3e 60 28 57 3e 16 f2 d5 be
       0.46009153 0.45737767 0.21011496 -0.4178626
000040 7c 88 e4 be 5c 2f dc be 84 39 3a be c4 0b ce 3e
       -0.4463538 -0.43004882 -0.18186003 0.4024335
000050 38 74 24 3e cc fa 3b be ba ed 9f 3e 98 44 8e bd
       0.16059959 -0.1835739 0.31236058 -0.06946677
000060 1c 5b 64 3e a2 77 8c 3e 70 1b c8 3e f6 2b d9 3e
       0.2230038 0.27435023 0.39083433 0.42416352
000070 50 9a 61 bd ec f0 22 3e 40 65 54 bc e8 32 a3 bd
       -0.055078804 0.15912217 -0.012963593 -0.07968694
000080 72 92 9a 3e 00 59 18 bc 86 92 c8 be 10 84 81 bd
       0.30189854 -0.009298563 -0.3917429 -0.06324017
000090 88 2f c1 3e a4 80 96 3e 14 7f c9 be 48 67 c9 3d
       0.37731576 0.2939502 -0.39354765 0.098341525
0000a0 dc 6a 7c 3e 00 91 27 bb fc 1f 51 be 10 0c a8 be
       0.24650139 -0.0025568604 -0.20422357 -0.32821703
0000b0 74 aa 54 be 1e 93 a2 be 80 85 69 3c 40 a0 bf bc
       -0.20768148 -0.31752867 0.01425302 -0.023391843
0000c0 9c 19 82 be 4c 62 23 be b0 06 18 3e f6 fc d5 be
       -0.25410163 -0.15955466 0.14846301 -0.41794556
0000d0 be 6a de be 48 61 22 3e e6 11 c2 3e 80 68 b5 3c
       -0.43440813 0.15857422 0.3790428 0.022144556
0000e0 bc 05 18 be 00 95 85 3e 68 c7 dd 3e e8 bb 03 3e
       -0.14845937 0.2609024 0.43316197 0.1286465
0000f0 00 9c 3d bc d4 95 56 3e 80 fc e5 bc 3a 90 b9 be
       -0.011572838 0.20955592 -0.028074503 -0.3624285
000100 4e 62 ed be 40 03 76 3c 70 99 18 be 36 62 ce 3e
       -0.46364063 0.015015423 -0.14902282 0.40309304
000110 52 a7 a6 3e c8 e6 f2 3d 1e 23 a1 be b8 ee 00 3e
       0.3254953 0.11860424 -0.31472105 0.12591064
000120 38 8f 82 3d f0 67 f1 3d 10 6e 96 be 40 cb 58 bc
       0.06374973 0.11787403 -0.29380846 -0.013232052
000130 98 e2 85 bd c0 a9 04 3d 2c fe 97 be 08 bd 82 3e
       -0.0653736 0.03238845 -0.29686105 0.25534844
000140 d8 85 f2 3e fe 46 ab be 3e 11 8e be 92 bd cf 3e
       0.4736774 -0.334526 -0.2774753 0.40574318
000150 60 fa 09 3e 50 d7 86 be 24 a8 14 3e c8 65 dd 3d
       0.13474417 -0.26336145 0.14517266 0.10810429
000160 28 70 98 be d0 f8 2c 3e 30 c2 b5 3d 54 28 6b 3e
       -0.29773068 0.1689179 0.08874929 0.22964603
000170 4a c8 e5 be 68 9e c8 be 18 ee a2 3d 1c bf b7 3e
       -0.4487937 -0.39183354 0.07955569 0.35887992
000180 68 fa ab 3e 3e d2 86 be e8 27 95 be 00 5d 46 3e
       0.33589482 -0.26332277 -0.2913201 0.19371414
000190 b8 21 10 3e 10 f8 59 bd 4e 65 c9 be 70 29 73 be
       0.14075363 -0.053215086 -0.39335102 -0.23746276
0001a0 20 cc 34 3e 78 8b c2 bd 46 2e ee be 7c 4d 15 be
       0.17655993 -0.09499258 -0.4651968 -0.14580339
0001b0 28 29 e3 3e a8 08 df bd f4 d2 93 3e e8 ab 74 be
       0.44367337 -0.10890323 0.28871882 -0.23893702
0001c0 90 b5 a7 3e 2e 92 f4 be 10 bf 89 3d 40 8f 25 bd
       0.3275571 -0.47767776 0.067258954 -0.040419817
0001d0 e2 aa ab be 60 30 d7 bc 7a fd f3 be d8 3f 9c 3e
       -0.3352881 -0.026268184 -0.47654325 0.3051746
0001e0 e0 ff ed bd dc f0 6a 3e c4 cc 1c 3e a8 e3 ca be
       -0.1162107 0.22943443 0.15312487 -0.39626813
0001f0 90 bc f6 3e bc f4 6c 3e cc 53 09 be 48 68 85 bd
       0.48190737 0.23140234 -0.13410872 -0.06514031
000200 10 3e dd bd 44 32 3c 3e 00 42 0b bc e8 66 90 bd
       -0.10802853 0.1837855 -0.008499622 -0.07050878
000210 94 70 a0 be 80 ed 09 3d 9c e1 73 be c0 e7 24 bc
       -0.3133589 0.033673763 -0.23816532 -0.010065019
000220 cc 63 5e be ee c1 cc be 56 9e b6 be 26 63 a5 3e
       -0.21717757 -0.39991707 -0.35667676 0.32302207
000230 40 5e 3a bd 38 4a 39 be 44 41 b0 be 18 09 b0 3e
       -0.04550004 -0.18094718 -0.34424794 0.34381938
000240 b8 53 d4 3e 54 50 4d be 68 c8 b3 bd 22 bf ce be
       0.41470122 -0.20050174 -0.08778459 -0.40380198
000250 0c b9 a1 3e 00 ad 8a bc d4 dd 13 3e 4c d7 42 3e
       0.31586492 -0.016928196 0.1444009 0.19027442
000260 12 13 fc be a2 1f 81 3e b8 75 e0 3e 00 17 17 be
       -0.492333 0.25219446 0.43839812 -0.14754868
000270 68 ec fa be c8 cc 43 be c0 9e ad bc b0 9b 16 3e
       -0.4900849 -0.19121087 -0.021193862 0.14707828
000280 9e 73 84 be bc 71 96 be d4 80 47 be d2 55 90 be
       -0.2586946 -0.29383647 -0.19482738 -0.28190476
000290 44 d7 fb be a0 e5 de 3e 4c 9e 81 3e 0c 66 16 be
       -0.49187672 0.43534565 0.25316083 -0.14687365
0002a0 0c bd 3b be 54 f5 c7 be b8 30 92 3d f0 8e c2 bd
       -0.18333834 -0.39054358 0.071381986 -0.094999194
0002b0 16 9e 9a 3e c0 1c a8 be 84 88 08 be 98 f3 aa 3d
       0.30198735 -0.32834435 -0.13333327 0.08347243
0002c0 54 3f 33 be d8 51 bb bd d0 a0 de bd e6 f9 b0 be
       -0.17504627 -0.0914647 -0.10870516 -0.34565657
0002d0 2c 69 04 be 00 38 97 3d 68 57 3d be 38 0c ce 3d
       -0.12930745 0.07383728 -0.18490374 0.10060924
0002e0 f0 97 8e 3d 8e e9 cc be 4a b7 cd 3e b0 85 5a bd
       0.069625735 -0.40021938 0.401789 -0.05335015
0002f0 00 e4 f1 bb 6c 5f a6 3e f8 f7 2c 3e f0 14 2b bd
       -0.007381916 0.32494676 0.16891468 -0.041768014
000300 dc d3 52 be 66 c3 8e be 90 38 25 3d da 43 da be
       -0.2058863 -0.27883452 0.040337145 -0.42629892
000310 0c 16 82 3e d0 ba a0 be f2 df 8c be d0 dc d7 bd
       0.25407445 -0.31392527 -0.27514607 -0.105401635
000320 80 0f 89 3c 90 57 8a bd 3e ea dd 3e 26 04 af be
       0.016731024 -0.067549825 0.43342775 -0.34182853
000330 0c 33 07 3e 50 29 3b bd 80 f5 16 3d b8 26 d6 bd
       0.13203067 -0.045693696 0.03685522 -0.10456604
000340 3c 17 ce 3e 7c d1 57 be 08 81 82 3e f6 24 bc be
       0.402521 -0.21076006 0.25489068 -0.3674695
000350 90 04 db bd 8a b6 c8 3e c6 d8 d9 be fc ba 99 be
       -0.106942296 0.39201766 -0.42548198 -0.3002547
000360 54 46 4b 3e 20 7a fa be 70 b8 aa bd 9e 38 94 3e
       0.19851047 -0.489213 -0.0833596 0.28949445
000370 c6 73 f9 be a8 df ce 3e 7c 1b c4 3e 26 4f ea 3e
       -0.4872114 0.4040501 0.3830222 0.4576351
000380 9a 40 ef 3e 90 e0 83 bd 7c ab 75 be 84 a6 b8 be
       0.46728975 -0.06439316 -0.23991197 -0.3606454
000390 68 2f c6 be 08 e3 b5 3d 20 7c 5c be 4c 54 9c be
       -0.38708043 0.088811934 -0.21531725 -0.30533063
0003a0 c6 d1 90 be 40 ef bd 3e 40 2b a2 be 34 f6 27 be
       -0.28285044 0.37096596 -0.31673622 -0.16402513
0003b0 10 8c 54 3e c0 0f 56 bc 58 8d f4 3e e8 b4 b5 3d
       0.20756555 -0.0130652785 0.47764087 0.08872396
0003c0 16 26 f5 3e ec 5b f0 3e 78 ca b9 be b4 60 5c be
       0.4788062 0.4694513 -0.36287284 -0.21521264
0003d0 68 63 ad be 62 6a e4 3e 60 cc 26 3e c4 58 84 be
       -0.33864903 0.44612414 0.162889 -0.25848973
0003e0 6c 9e a8 3e b0 8b f5 3e fe 44 d4 3e 20 21 f7 be
       0.32933366 0.47958136 0.41458887 -0.4826746
0003f0 f0 ba 7d bd 8a 11 8c 3e a0 e2 42 bd c0 83 1d 3d
       -0.061945856 0.2735713 -0.047579408 0.038455725

fc4.weight f4 [1, 21]
000000 70 90 c4 bd c6 49 f9 3e 0c f4 6a be 08 ef 5a be
       -0.09597862 0.48689097 -0.22944659 -0.21380246
000010 e0 36 0c bd 2c 41 d9 be 50 ee 6c 3e 60 2c c8 be
       -0.03423202 -0.42432535 0.23137784 -0.39096355
000020 80 cd b1 bd e8 f5 80 be 9a 12 eb be a8 ef ba be
       -0.08681774 -0.25187612 -0.4591263 -0.36510968
000030 ca c1 bf 3e 5c df 43 3e 30 39 ed 3e 60 dd 9d bd
       0.37452537 0.19128174 0.46332693 -0.077082396
000040 5e 63 d3 be 24 4b 09 be 68 89 5e be ae 5e c1 be
       -0.4128675 -0.1340757 -0.21732104 -0.37767547
000050 7a f7 bb 3e
       0.36712247

batchnorm1.weight f4 [20]
000000 00 00 80 3f 00 00 80 3f 00 00 80 3f 00 00 80 3f
       1.0 1.0 1.0 1.0
000010 00 00 80 3f 00 00 80 3f 00 00 80 3f 00 00 80 3f
       1.0 1.0 1.0 1.0
000020 00 00 80 3f 00 00 80 3f 00 00 80 3f 00 00 80 3f
       1.0 1.0 1.0 1.0
000030 00 00 80 3f 00 00 80 3f 00 00 80 3f 00 00 80 3f
       1.0 1.0 1.0 1.0
000040 00 00 80 3f 00 00 80 3f 00 00 80 3f 00 00 80 3f
       1.0 1.0 1.0 1.0

batchnorm1.bias f4 [20]
000000 00 00 00 00 00 00 00 00 00 00 00 00 00 00 00 00
       0.0 0.0 0.0 0.0
000010 00 00 00 00 00 00 00 00 00 00 00 00 00 00 00 00
       0.0 0.0 0.0 0.0
000020 00 00 00 00 00 00 00 00 00 00 00 00 00 00 00 00
       0.0 0.0 0.0 0.0
000030 00 00 00 00 00 00 00 00 00 00 00 00 00 00 00 00
       0.0 0.0 0.0 0.0
000040 00 00 00 00 00 00 00 00 00 00 00 00 00 00 00 00
       0.0 0.0 0.0 0.0

batchnorm1.running_mean f4 [20]
000000 00 00 00 00 00 00 00 00 00 00 00 00 00 00 00 00
       0.0 0.0 0.0 0.0
000010 00 00 00 00 00 00 00 00 00 00 00 00 00 00 00 00
       0.0 0.0 0.0 0.0
000020 00 00 00 00 00 00 00 00 00 00 00 00 00 00 00 00
       0.0 0.0 0.0 0.0
000030 00 00 00 00 00 00 00 00 00 00 00 00 00 00 00 00
       0.0 0.0 0.0 0.0
000040 00 00 00 00 00 00 00 00 00 00 00 00 00 00 00 00
       0.0 0.0 0.0 0.0

batchnorm1.running_var f4 [20]
000000 00 00 80 3f 00 00 80 3f 00 00 80 3f 00 00 80 3f
       1.0 1.0 1.0 1.0
000010 00 00 80 3f 00 00 80 3f 00 00 80 3f 00 00 80 3f
       1.0 1.0 1.0 1.0
000020 00 00 80 3f 00 00 80 3f 00 00 80 3f 00 00 80 3f
       1.0 1.0 1.0 1.0
000030 00 00 80 3f 00 00 80 3f 00 00 80 3f 00 00 80 3f
       1.0 1.0 1.0 1.0
000040 00 00 80 3f 00 00 80 3f 00 00 80 3f 00 00 80 3f
       1.0 1.0 1.0 1.0

batchnorm2.weight f4 [20]
000000 00 00 80 3f 00 00 80 3f 00 00 80 3f 00 00 80 3f
       1.0 1.0 1.0 1.0
000010 00 00 80 3f 00 00 80 3f 00 00 80 3f 00 00 80 3f
       1.0 1.0 1.0 1.0
000020 00 00 80 3f 00 00 80 3f 00 00 80 3f 00 00 80 3f
       1.0 1.0 1.0 1.0
000030 00 00 80 3f 00 00 80 3f 00 00 80 3f 00 00 80 3f
       1.0 1.0 1.0 1.0
000040 00 00 80 3f 00 00 80 3f 00 00 80 3f 00 00 80 3f
       1.0 1.0 1.0 1.0

batchnorm2.bias f4 [20]
000000 00 00 00 00 00 00 00 00 00 00 00 00 00 00 00 00
       0.0 0.0 0.0 0.0
000010 00 00 00 00 00 00 00 00 00 00 00 00 00 00 00 00
       0.0 0.0 0.0 0.0
000020 00 00 00 00 00 00 00 00 00 00 00 00 00 00 00 00
       0.0 0.0 0.0 0.0
000030 00 00 00 00 00 00 00 00 00 00 00 00 00 00 00 00
       0.0 0.0 0.0 0.0
000040 00 00 00 00 00 00 00 00 00 00 00 00 00 00 00 00
       0.0 0.0 0.0 0.0

batchnorm2.running_mean f4 [20]
000000 00 00 00 00 00 00 00 00 00 00 00 00 00 00 00 00
       0.0 0.0 0.0 0.0
000010 00 00 00 00 00 00 00 00 00 00 00 00 00 00 00 00
       0.0 0.0 0.0 0.0
000020 00 00 00 00 00 00 00 00 00 00 00 00 00 00 00 00
       0.0 0.0 0.0 0.0
000030 00 00 00 00 00 00 00 00 00 00 00 00 00 00 00 00
       0.0 0.0 0.0 0.0
000040 00 00 00 00 00 00 00 00 00 00 00 00 00 00 00 00
       0.0 0.0 0.0 0.0

batchnorm2.running_var f4 [20]
000000 00 00 80 3f 00 00 80 3f 00 00 80 3f 00 00 80 3f
       1.0 1.0 1.0 1.0
000010 00 00 80 3f 00 00 80 3f 00 00 80 3f 00 00 80 3f
       1.0 1.0 1.0 1.0
000020 00 00 80 3f 00 00 80 3f 00 00 80 3f 00 00 80 3f
       1.0 1.0 1.0 1.0
000030 00 00 80 3f 00 00 80 3f 00 00 80 3f 00 00 80 3f
       1.0 1.0 1.0 1.0
000040 00 00 80 3f 00 00 80 3f 00 00 80 3f 00 00 80 3f
       1.0 1.0 1.0 1.0

batchnorm3.weight f4 [20]
000000 00 00 80 3f 00 00 80 3f 00 00 80 3f 00 00 80 3f
       1.0 1.0 1.0 1.0
000010 00 00 80 3f 00 00 80 3f 00 00 80 3f 00 00 80 3f
       1.0 1.0 1.0 1.0
000020 00 00 80 3f 00 00 80 3f 00 00 80 3f 00 00 80 3f
       1.0 1.0 1.0 1.0
000030 00 00 80 3f 00 00 80 3f 00 00 80 3f 00 00 80 3f
       1.0 1.0 1.0 1.0
000040 00 00 80 3f 00 00 80 3f 00 00 80 3f 00 00 80 3f
       1.0 1.0 1.0 1.0

batchnorm3.bias f4 [20]
000000 00 00 00 00 00 00 00 00 00 00 00 00 00 00 00 00
       0.0 0.0 0.0 0.0
000010 00 00 00 00 00 00 00 00 00 00 00 00 00 00 00 00
       0.0 0.0 0.0 0.0
000020 00 00 00 00 00 00 00 00 00 00 00 00 00 00 00 00
       0.0 0.0 0.0 0.0
000030 00 00 00 00 00 00 00 00 00 00 00 00 00 00 00 00
       0.0 0.0 0.0 0.0
000040 00 00 00 00 00 00 00 00 00 00 00 00 00 00 00 00
       0.0 0.0 0.0 0.0

batchnorm3.running_mean f4 [20]
000000 00 00 00 00 00 00 00 00 00 00 00 00 00 00 00 00
       0.0 0.0 0.0 0.0
000010 00 00 00 00 00 00 00 00 00 00 00 00 00 00 00 00
       0.0 0.0 0.0 0.0
000020 00 00 00 00 00 00 00 00 00 00 00 00 00 00 00 00
       0.0 0.0 0.0 0.0
000030 00 00 00 00 00 00 00 00 00 00 00 00 00 00 00 00
       0.0 0.0 0.0 0.0
000040 00 00 00 00 00 00 00 00 00 00 00 00 00 00 00 00
       0.0 0.0 0.0 0.0

batchnorm3.running_var f4 [20]
000000 00 00 80 3f 00 00 80 3f 00 00 80 3f 00 00 80 3f
       1.0 1.0 1.0 1.0
000010 00 00 80 3f 00 00 80 3f 00 00 80 3f 00 00 80 3f
       1.0 1.0 1.0 1.0
000020 00 00 80 3f 00 00 80 3f 00 00 80 3f 00 00 80 3f
       1.0 1.0 1.0 1.0
000030 00 00 80 3f 00 00 80 3f 00 00 80 3f 00 00 80 3f
       1.0 1.0 1.0 1.0
000040 00 00 80 3f 00 00 80 3f 00 00 80 3f 00 00 80 3f
       1.0 1.0 1.0 1.0
