initial model(on Tanh).pth (torch, 10934 bytes, 16 tensors)

fc1.weight f4 [20, 2]
000000 ac 54 11 be f0 d3 d8 3e 80 58 c8 3d 86 de fe 3e
       -0.14192456 0.42349195 0.09782505 0.49779147
000010 5e ac fe 3e 66 b3 d6 3e dc 68 aa 3e 30 01 c9 3e
       0.4974088 0.41933745 0.33283126 0.39258718
000020 18 a6 70 be b0 51 47 be e0 a4 ee bd 36 07 83 be
       -0.2350086 -0.19464755 -0.11652541 -0.2559144
000030 e0 15 bc 3e 00 74 3f 3d 08 ad 01 be a0 64 65 be
       0.3673544 0.046741486 -0.12663662 -0.22401667
000040 9c eb e3 be 30 f2 12 3d a0 08 e1 3e d0 53 a8 3e
       -0.44515693 0.0358755 0.43951893 0.32876444
000050 fc e6 ca 3e ae e8 ae 3e 04 73 57 3e 40 e6 6b bc
       0.39629352 0.34161896 0.21039969 -0.014398158
000060 e4 61 bd be be 38 bc 3e b4 24 b4 be 0c f1 99 be
       -0.36988747 0.3676204 -0.35184252 -0.30066717
000070 14 73 4d 3e 00 98 8c 3e 24 38 85 be 2c 03 a2 3e
       0.2006343 0.27459717 -0.26019394 0.31643045
000080 0e 95 ef be 30 05 f4 3d f0 07 62 3e e8 33 be 3d
       -0.46793407 0.11915052 0.2207334 0.09287244
000090 90 0d 90 be 60 e3 ac be 42 9b cc 3e d0 97 e1 3d
       -0.28135347 -0.33767223 0.39962202 0.11015284

fc2.weight f4 [20, 21]
000000 60 f5 5b be b8 93 f6 3e c0 bd d5 bd a0 5b bd bd
       -0.21480322 0.48159575 -0.104365826 -0.09245992
000010 14 c9 03 3e 0a 22 d5 3e b4 ea 63 be 00 33 25 3b
       0.12869674 0.41627532 -0.22257501 0.00252074
000020 30 dc 65 be f8 e7 67 be 80 95 8b bd 00 08 07 ba
       -0.22447276 -0.22647083 -0.06815624 -0.00051510334
000030 60 44 89 3e 6a 37 bf be de 8e 94 3e 5c 01 c8 3e
       0.26809978 -0.37346965 0.2901525 0.39063537
000040 40 79 69 bd a0 74 37 bd f8 85 fc 3d 80 5f ea be
       -0.0570004 -0.044788957 0.1233024 -0.45775986
000050 a0 5e bc 3e f0 21 b3 bd 20 bb a4 3c 38 bc 72 3e
       0.36790943 -0.087467074 0.02010876 0.23704612
000060 8c 31 55 3e 84 e7 6c be 42 09 bc be 02 f7 f6 be
       0.20819682 -0.23135191 -0.36725813 -0.48235327
000070 7a c4 d5 be 78 43 d7 bd 20 bd c6 be e0 ca 4e bd
       -0.41751462 -0.105109155 -0.38816166 -0.050486445
000080 ac 3f 87 be e6 0e 91 3e 44 1b af 3e ce 93 d8 3e
       -0.26415765 0.2833168 0.3420049 0.42300266
000090 66 df a7 be 8e a9 b4 be 80 9c 31 3e 98 d7 e9 bd
       -0.32787627 -0.3528561 0.17344856 -0.11418074
0000a0 42 25 c2 3e 88 da ea be ec 65 ed 3e fa 90 b1 be
       0.3791905 -0.4586985 0.46366823 -0.3468092
0000b0 52 4a cd be 60 2c 59 bd 90 d1 62 be 5c 61 a1 be
       -0.40095764 -0.053020835 -0.22150254 -0.31519592
0000c0 0a 27 92 3e f0 b6 c5 3e c0 87 8e 3e 00 fb 79 3d
       0.2854541 0.38616133 0.27837944 0.061030388
0000d0 c8 5a 93 bd 5c ad 8b be e8 ff f3 3e 80 6e 8b be
       -0.071950495 -0.272807 0.47656178 -0.27232742
0000e0 78 74 e0 be 34 32 d9 3e 10 2b 25 bd 0a 03 ac 3e
       -0.4383886 0.42421114 -0.04032427 0.3359607
0000f0 64 f0 29 be 18 64 c7 3e 22 86 b4 be 7e 0e 9a 3e
       -0.16595608 0.38943553 -0.35258585 0.30089182
000100 7a 3f c7 3e 00 0f e5 bb 24 c5 a9 3e 60 59 91 3c
       0.38915616 -0.0069903135 0.3315822 0.017742813
000110 62 63 ea be e8 4d 60 3e ac 03 c7 be 20 b9 80 3c
       -0.45778948 0.21904719 -0.3886999 0.015713274
000120 50 47 e6 be b4 c5 73 be 88 8e 18 be f4 f8 46 be
       -0.44976282 -0.23805887 -0.14898121 -0.19430906
000130 aa 2c fc be a8 4d 7e be fe 33 ed be 12 05 d6 be
       -0.49252826 -0.24834311 -0.4632873 -0.41800743
000140 d6 67 ff be 1c 79 93 be 40 76 e5 bd c8 9f e6 3e
       -0.49883908 -0.28803337 -0.11204195 0.45043778
000150 72 19 b4 be f4 ab c2 be 66 66 d0 be 6e 7f ef 3e
       -0.35175663 -0.38021815 -0.40703124 0.4677691
000160 50 f4 82 bd f8 38 08 be e2 5c 8c 3e e2 41 97 be
       -0.06394255 -0.13302982 0.27414614 -0.29542452
000170 28 50 07 be a4 a4 ea 3e 64 59 88 3e 5e 96 c6 be
       -0.13214171 0.45828736 0.266307 -0.38786596
000180 34 b8 0c be f0 1c 49 3d 1c fd 38 3e 14 8e 6b be
       -0.13742143 0.049099863 0.18065304 -0.23003417
000190 c0 3f b3 3e 00 1c 00 3c ea 57 dd be f4 31 09 3e
       0.35009575 0.007819176 -0.43231136 0.13397962
0001a0 98 83 f8 be a0 94 0e 3d f8 30 fd be 98 0b 12 be
       -0.48537898 0.03480971 -0.49451423 -0.14262235
0001b0 a8 fb ed bd e0 f4 e5 be ec d1 10 be 00 8c 89 3c
       -0.11620265 -0.44913387 -0.14142579 0.01679039
0001c0 f8 3b 90 be c0 51 91 3d 36 2f 87 3e d0 b4 71 3d
       -0.28170753 0.07095671 0.26403207 0.059010327
0001d0 78 47 fb be 00 16 cf ba 24 f2 6f be e8 f0 11 3e
       -0.49077964 -0.0015799403 -0.23432213 0.14252055
0001e0 c0 67 cd be 86 15 b1 be e0 f9 87 bc de 9e 93 3e
       -0.40118217 -0.34586734 -0.016598642 0.28832144
0001f0 60 c8 08 be c0 fd d7 bc b0 d2 4a bd 78 4e c8 be
       -0.13357687 -0.026366115 -0.049517334 -0.39122367
000200 60 08 22 bd c0 8f 66 bc e8 7e a9 3d b8 28 65 3e
       -0.03955877 -0.014072359 0.082761586 0.22378814
000210 98 7a 18 3e 86 c3 8e 3e 00 37 c3 bd d0 2d 5d be
       0.14890516 0.27883548 -0.09531975 -0.21599507
000220 a6 68 d9 3e 6a 1d cc 3e 0c 93 8b 3e 9c 7c ba 3e
       0.42462653 0.3986619 0.27260625 0.36423194
000230 58 c3 7a 3e 1a 4c e2 3e ac b1 de 3e dc 24 d0 be
       0.2448858 0.44198686 0.43494928 -0.4065312
000240 02 3f f1 be 96 d1 84 be b8 bb c3 3e ee 25 e7 3e
       -0.47118384 -0.2594115 0.38229156 0.45146126
000250 30 99 05 3d c8 47 bd be a4 a3 70 be 44 65 73 3e
       0.032616794 -0.36968827 -0.23499924 0.23769099
000260 7c 76 ee 3e 48 56 c6 3d 30 5d a8 be 70 e4 f2 3e
       0.4657477 0.096844256 -0.32883596 0.4743991
000270 0e cb e0 3e 9c 9c 60 be 86 53 8a be 38 2d 93 3e
       0.43904918 -0.21934742 -0.27016848 0.28745437
000280 6e fe b8 be 20 b0 d5 3e f8 b5 ce bd 80 fd de bb
       -0.36131614 0.41735935 -0.100933015 -0.006805122
000290 8e c3 88 be 78 15 fd be d8 ac e7 3d 0c 6b 36 be
       -0.26711696 -0.49430442 0.11312264 -0.17814273
0002a0 b0 1a 96 be 88 0f cc 3e 88 e2 bd 3d 9c 48 09 be
       -0.29317236 0.398556 0.09271723 -0.13406605
0002b0 5a 14 ec be b0 1c 90 be 40 21 27 be 68 3b 57 3e
       -0.46109277 -0.28146887 -0.16321278 0.21018755
0002c0 a0 52 e9 be 96 d9 93 3e 8c dc e8 3e e8 6f 1e 3e
       -0.4557085 0.28876942 0.45480764 0.15472376
0002d0 fc 2c fe be 48 98 85 3d 7c 9e 4e be 60 f5 21 3e
       -0.49643695 0.06523186 -0.20177644 0.1581626
0002e0 c0 1b 99 bc 3c 83 7a 3e f0 9f 26 bd d8 b3 b8 3d
       -0.01868999 0.24464124 -0.040679872 0.090186775
0002f0 5c fc 4b 3e 6e ab bd be 28 c5 aa 3d 2a 20 e4 3e
       0.19920486 -0.37044853 0.08338386 0.4455579
000300 32 c1 b2 3e 40 f5 fe 3c 50 12 b4 bd 98 b4 53 3e
       0.3491302 0.031122804 -0.08792555 0.2067436
000310 4c 1e e1 be 90 35 1a be dc 0b de 3e 28 c7 83 3d
       -0.43968427 -0.15059495 0.43368423 0.064344704
000320 80 f6 d3 bb 4c 80 c9 be b0 eb a5 be a8 9d 8d 3d
       -0.006468594 -0.39355695 -0.32406378 0.06914836
000330 da 6e c0 be 54 0e 14 be b8 39 7c be 4c c9 1d 3e
       -0.37584573 -0.14458591 -0.24631393 0.1540882
000340 10 6f 9c 3d 24 2d f7 be 04 fd 28 3e 30 a6 38 bd
       0.07638371 -0.48276627 0.16502768 -0.045080364
000350 30 0b 78 be 42 96 bc 3e d6 88 a8 be 7c 81 e9 be
       -0.24223018 0.36833388 -0.32916898 -0.456066
000360 50 48 5f 3d 64 f2 8a be 98 eb 4f be ee e1 df be
       0.054512322 -0.27138054 -0.20304716 -0.43727058
000370 c0 7d fe bd c0 63 cb 3e 42 45 e8 be a2 1b ad be
       -0.12426329 0.3972454 -0.4536534 -0.33810145
000380 d8 15 e0 bd 30 9a ca be d0 ad bf 3d e8 7c cb bd
       -0.10941666 -0.3957076 0.09359324 -0.09935933
000390 74 a8 c1 3e 0a 6c fe be 20 20 89 3c 70 c6 61 3e
       0.37823832 -0.49691802 0.016738951 0.22048354
0003a0 18 ee 84 3d 00 6f 0b be a4 14 f0 3e ce b6 c6 be
       0.06490725 -0.13616562 0.46890748 -0.38811344
0003b0 b0 6f ee 3e 24 64 0b 3e d0 cc 73 3e 9c 78 b4 3e
       0.46569586 0.1361242 0.23808599 0.35248268
0003c0 a0 d3 4b 3d 50 29 59 3d 70 a2 cf bd a2 3b e8 be
       0.04976237 0.053017914 -0.10138404 -0.45357996
0003d0 50 ae 57 3e f4 76 bf 3e dc 13 56 3e 58 c7 9f bd
       0.21062589 0.37395442 0.20906013 -0.07801694
0003e0 3a 29 e5 be c0 67 07 bc 74 26 05 3e d0 5f c8 be
       -0.44758016 -0.008264482 0.1300295 -0.391356
0003f0 d8 af d9 3e 40 b9 57 bc 00 d7 0b 3e e0 d6 e1 3e
       0.4251697 -0.013166726 0.13656235 0.4410925

fc3.weight f4 [20, 21]
000000 4a 57 e2 3e c4 db 65 3e e0 81 16 3e 00 ec f6 3d
       0.4420722 0.22447115 0.14697981 0.12056732
000010 50 66 50 3d 4a f8 a8 3e 50 d5 10 3e 22 d8 d7 be
       0.050878823 0.3300193 0.14143872 -0.42157084
000020 c8 38 97 be f8 7a e8 be 40 e0 19 be 20 59 d1 3c
       -0.29535508 -0.45406318 -0.15026951 0.025555193
000030 94 12 59 be d8 6f eb be 1e 7e a6 be 18 e7 59 3e
       -0.21198493 -0.45983768 -0.32518095 0.21279562
000040 e0 43 10 bd a0 ac ab bd 70 c9 a5 3d 68 4d d8 bd
       -0.03522098 -0.08382535 0.08095062 -0.10561639
000050 5c 83 8b be 78 f3 6a be f4 b0 50 be 78 9f ef be
       -0.27248657 -0.22944438 -0.20380002 -0.46801353
000060 00 17 ec be f4 fc 41 be 2c 22 40 3e 76 5b fa 3e
       -0.46111298 -0.1894415 0.18763036 0.48897904
000070 80 b9 5d bc 6e d2 ae 3e a4 4b 29 3e d4 e3 cb be
       -0.013532996 0.3414492 0.16532761 -0.39822257
000080 d0 12 80 be b0 7b 0c be 88 ff d2 be f0 69 8f 3d
       -0.25014353 -0.13719058 -0.4121058 0.07002628
000090 c8 3b f3 3d 9a 8f c7 be 48 85 d7 bd d0 ce e1 be
       0.11876637 -0.38976747 -0.10523468 -0.44103098
0000a0 d8 ed fe 3e 6c 6a 97 3e 4c 23 41 be 3e 14 dc 3e
       0.49790835 0.2957338 -0.18861121 0.42984194
0000b0 94 3b a0 be be 5e d7 3e f0 09 45 be 8c 98 15 3e
       -0.31295455 0.4206447 -0.19242072 0.14608973
0000c0 da e4 b1 3e a4 5f 6e 3e 80 25 f8 3d 70 29 6c bd
       0.34744912 0.23278672 0.121165276 -0.057656705
0000d0 00 39 71 3b 4c 96 da 3e c4 52 27 be 80 1e 26 be
       0.0036807656 0.42692792 -0.16340166 -0.16222572
0000e0 80 db 82 3d b0 6c 78 be 10 93 41 be 80 08 20 3d
       0.063895226 -0.24260211 -0.18903756 0.039070606
0000f0 0a 88 c0 3e c8 ef 26 3e 28 2f 9e be 44 94 9a 3e
       0.3760379 0.16302407 -0.30895352 0.30191243
000100 68 8f 3c be 54 0a 04 3e 00 35 f1 3c ea d4 b6 3e
       -0.1841408 0.12894565 0.029444218 0.35709316
000110 e0 b7 e4 bd 5c 09 50 be 50 fd cb bd 00 e8 94 3b
       -0.11167884 -0.2031607 -0.09960425 0.004544258
000120 d4 9e 71 be ac f3 af 3e 62 40 89 be 10 fe a1 3d
       -0.23595744 0.34365594 -0.26806933 0.07909787
000130 c6 8c c4 be 80 4c 7e bd 10 a4 dc bd ac d4 4c be
       -0.38388652 -0.062084675 -0.1077348 -0.20003003
000140 90 d3 85 3e c8 95 e4 be e0 ce 56 3d c0 95 3f bd
       0.26137972 -0.44645524 0.052443385 -0.046773672
000150 54 23 85 be 18 15 c7 3e 3e b5 a0 3e b4 b8 1a 3e
       -0.26003516 0.3888328 0.31388277 0.15109521
000160 c0 5c 1f 3c dc e3 8d 3e 44 e6 60 be d4 50 d0 be
       0.009726703 0.27712905 -0.2196284 -0.40686667
000170 58 a8 f5 3e c0 a9 3f be b0 67 cd 3d c0 99 23 3c
       0.4798 -0.18717098 0.100295424 0.009985387
000180 a8 84 d7 3e 82 a3 fe 3e 38 3c ac be 80 bd ae bb
       0.42093396 0.49734122 -0.33639693 -0.0053326488
000190 2a 8b cf be 22 58 a5 3e ba 6c f4 3e ac b5 43 be
       -0.4053586 0.32293802 0.47739202 -0.19112271
0001a0 a8 97 b9 3d 00 77 e1 bd 18 13 f8 bd a0 45 cb 3e
       0.09062129 -0.110090256 -0.12113017 0.39701557
0001b0 06 db ed be b0 38 8c bd 00 61 06 bb ae c8 e1 be
       -0.46456164 -0.0684675 -0.0020504594 -0.4409842
0001c0 c8 87 52 3e 9a b7 aa 3e 0e 5b cb be 24 1a 46 3e
       0.20559609 0.33343202 -0.39717907 0.1934591
0001d0 20 81 04 bd f6 d7 ef 3e 1c 3f f1 be 46 57 d9 3e
       -0.032349706 0.46844453 -0.4711846 0.42449397
0001e0 7c 35 3e be 90 cd d7 3e 2e 96 82 be d8 70 ad 3d
       -0.1857509 0.4214902 -0.25505203 0.08468789
0001f0 50 e0 ee 3d 9a d1 9e 3e 98 fa 6f 3e ec 11 8f 3e
       0.11663878 0.31019288 0.23435438 0.2794336
000200 90 8e d7 bd 16 8a ca be 00 3f be 3b 24 81 e9 3e
       -0.105252385 -0.39558476 0.00580585 0.4560634
000210 ea 70 dd 3e e4 a0 96 be fa 1a b0 3e 6c 46 66 3e
       0.4325021 -0.29419625 0.3439558 0.22487801
000220 48 4b b9 bd 8e bc 8b 3e c0 d2 aa bc c0 5f 79 3d
       -0.09047562 0.27292293 -0.020852447 0.06088233
000230 f0 be a7 be 20 35 7c bd 40 9a fa 3e 7a 97 9e 3e
       -0.3276286 -0.0615741 0.48945808 0.30974942
000240 40 e4 ce be c0 fd e7 bc 84 11 a3 3e dc 1a 5b be
       -0.40408516 -0.02831924 0.318493 -0.21396965
000250 c8 42 80 bd b8 62 7f 3e d2 27 d7 3e 80 43 e8 3e
       -0.062627375 0.24940002 0.42022568 0.45363998
000260 c8 f0 b8 be 9e 38 f1 be c2 ea b4 3e e0 a0 1e bd
       -0.36121202 -0.47113508 0.35335356 -0.03872764
000270 18 21 e7 3e ea b5 b5 3e 00 e2 47 be 84 ae 12 3e
       0.45142436 0.35490352 -0.19519806 0.14324385
000280 70 41 2c 3e 44 41 37 be dc 01 e6 3e c0 0c 28 3d
       0.16821837 -0.1789599 0.44923294 0.041027784
000290 44 57 27 be a0 d4 e9 be e8 e1 cc 3e 82 d9 fd be
       -0.16341883 -0.45670033 0.40016103 -0.49580008
0002a0 78 da c2 3e 90 51 33 be d0 76 bb bd f8 53 8a 3d
       0.38057303 -0.17511582 -0.09153521 0.06754297
0002b0 ae a6 fb 3e ce 85 a8 be e0 cf b5 be 8c e0 99 3e
       0.49150604 -0.32914585 -0.3551016 0.30054128
0002c0 d0 ab 78 be f0 6a 3c be 32 fe 93 3e 40 3b 54 be
       -0.24284291 -0.18400168 0.28904873 -0.20725727
0002d0 84 7b 98 3e e8 af 47 be 72 ea c4 3e 60 06 ff 3e
       0.29781735 -0.19500697 0.38460118 0.4980955
0002e0 30 a3 8d 3d 30 73 2a be 80 01 90 3e c0 1b 0f 3e
       0.06915891 -0.16645503 0.28126144 0.1397543
0002f0 00 3d 0e 3b 20 64 e4 3e c0 ea ec bc 60 f8 33 3e
       0.002170384 0.4460764 -0.028920531 0.17575216
000300 18 7c 18 be 20 c8 b9 bd c0 4f b0 bc e0 cc 09 3d
       -0.14891088 -0.09071374 -0.021522403 0.03364265
000310 70 e8 5f 3e e8 1c c1 3e d4 ef 9c 3e 84 59 57 be
       0.21866012 0.37717366 0.30651724 -0.21030241
000320 32 76 e5 3e f6 ea ac 3e 3c 92 38 3e 80 81 5f 3d
       0.44816738 0.3377301 0.18024534 0.05456686
000330 96 e1 90 be ca ca 98 be 00 48 24 3b 12 6b be be
       -0.28297108 -0.29842216 0.002506733 -0.37191063
000340 dc 9c 33 3e 80 61 e8 be 48 47 e4 be 20 f8 65 be
       0.17540306 -0.45386887 -0.44585633 -0.22457933
000350 aa 4c 93 3e 9e 72 c8 3e b0 2c d7 be 1c ac a1 be
       0.28769428 0.39149946 -0.4202628 -0.31576622
000360 58 2b e3 3d 70 a2 ba bd 16 cb d1 be a0 3b 0e 3e
       0.110922515 -0.09113014 -0.40975255 0.13889933
000370 74 16 d5 be d0 2c 00 3d 70 b6 50 3e a4 22 ec 3e
       -0.41618693 0.031292737 0.20382094 0.4612018
000380 dc 7a da be 82 27 bf 3e 40 7d 8e 3d 58 e3 de 3e
       -0.4267186 0.3733483 0.06957483 0.43532825
000390 1c fe fb 3e f0 63 ff bd b0 7b 9f bd 60 8a f7 bd
       0.49217308 -0.124702334 -0.077872634 -0.1208694
0003a0 5a 57 c9 3e 8c b7 5d be 70 10 a9 3e 9c 93 52 3e
       0.39324456 -0.21652049 0.33020353 0.20564121
0003b0 22 b5 f0 3e 64 53 b5 3e fe c2 cf 3e a2 6b d2 be
       0.47013193 0.35415184 0.40578455 -0.41097742
0003c0 7e be 86 be 42 a2 b5 be 1c 3a 7e 3e a8 50 d0 3d
       -0.2631721 -0.35475355 0.24826854 0.10171634
0003d0 14 28 43 3e 2c 2b 40 3e c0 5d ad 3c e0 62 43 3e
       0.19058257 0.18766469 0.021162868 0.19080687
0003e0 32 d1 8a be 46 52 a6 3e 64 65 dc be 4a 3a eb be
       -0.27112728 0.32484645 -0.43046105 -0.4594291
0003f0 cc e1 2d 3e 70 56 f0 3e 40 4f 3b be 58 25 f1 3e
       0.16980666 0.46940947 -0.1829195 0.47098804

fc4.weight f4 [1, 21]
000000 d0 6a 5a bd d4 fc 4f be 00 0a 64 3d 6c f8 38 3e
       -0.05332452 -0.2031129 0.0556736 0.18063515
000010 38 8c e3 3d 00 c6 f2 3e 48 1d 90 3e 20 5c 46 bd
       0.11110729 0.47416687 0.2814734 -0.0484277
000020 a8 50 ae 3d 28 22 f8 3d 10 12 4b be d8 5c db be
       0.08511478 0.1211589 -0.19831109 -0.42844272
000030 10 da 59 bd 78 05 43 be 64 d3 f1 be 10 98 36 3e
       -0.053186476 -0.19045055 -0.4723159 0.17831445
000040 14 d3 56 be ee 18 f5 3e b4 1c 37 3e c4 0a 5a 3e
       -0.20978957 0.47870582 0.17882043 0.2129317
000050 bc 3a 15 3e
       0.14573187

batchnorm1.weight f4 [20]
000000 00 00 80 3f 00 00 80 3f 00 00 80 3f 00 00 80 3f
       1.0 1.0 1.0 1.0
000010 00 00 80 3f 00 00 80 3f 00 00 80 3f 00 00 80 3f
       1.0 1.0 1.0 1.0
000020 00 00 80 3f 00 00 80 3f 00 00 80 3f 00 00 80 3f
       1.0 1.0 1.0 1.0
000030 00 00 80 3f 00 00 80 3f 00 00 80 3f 00 00 80 3f
       1.0 1.0 1.0 1.0
000040 00 00 80 3f 00 00 80 3f 00 00 80 3f 00 00 80 3f
       1.0 1.0 1.0 1.0

batchnorm1.bias f4 [20]
000000 00 00 00 00 00 00 00 00 00 00 00 00 00 00 00 00
       0.0 0.0 0.0 0.0
000010 00 00 00 00 00 00 00 00 00 00 00 00 00 00 00 00
       0.0 0.0 0.0 0.0
000020 00 00 00 00 00 00 00 00 00 00 00 00 00 00 00 00
       0.0 0.0 0.0 0.0
000030 00 00 00 00 00 00 00 00 00 00 00 00 00 00 00 00
       0.0 0.0 0.0 0.0
000040 00 00 00 00 00 00 00 00 00 00 00 00 00 00 00 00
       0.0 0.0 0.0 0.0

batchnorm1.running_mean f4 [20]
000000 00 00 00 00 00 00 00 00 00 00 00 00 00 00 00 00
       0.0 0.0 0.0 0.0
000010 00 00 00 00 00 00 00 00 00 00 00 00 00 00 00 00
       0.0 0.0 0.0 0.0
000020 00 00 00 00 00 00 00 00 00 00 00 00 00 00 00 00
       0.0 0.0 0.0 0.0
000030 00 00 00 00 00 00 00 00 00 00 00 00 00 00 00 00
       0.0 0.0 0.0 0.0
000040 00 00 00 00 00 00 00 00 00 00 00 00 00 00 00 00
       0.0 0.0 0.0 0.0

batchnorm1.running_var f4 [20]
000000 00 00 80 3f 00 00 80 3f 00 00 80 3f 00 00 80 3f
       1.0 1.0 1.0 1.0
000010 00 00 80 3f 00 00 80 3f 00 00 80 3f 00 00 80 3f
       1.0 1.0 1.0 1.0
000020 00 00 80 3f 00 00 80 3f 00 00 80 3f 00 00 80 3f
       1.0 1.0 1.0 1.0
000030 00 00 80 3f 00 00 80 3f 00 00 80 3f 00 00 80 3f
       1.0 1.0 1.0 1.0
000040 00 00 80 3f 00 00 80 3f 00 00 80 3f 00 00 80 3f
       1.0 1.0 1.0 1.0

batchnorm2.weight f4 [20]
000000 00 00 80 3f 00 00 80 3f 00 00 80 3f 00 00 80 3f
       1.0 1.0 1.0 1.0
000010 00 00 80 3f 00 00 80 3f 00 00 80 3f 00 00 80 3f
       1.0 1.0 1.0 1.0
000020 00 00 80 3f 00 00 80 3f 00 00 80 3f 00 00 80 3f
       1.0 1.0 1.0 1.0
000030 00 00 80 3f 00 00 80 3f 00 00 80 3f 00 00 80 3f
       1.0 1.0 1.0 1.0
000040 00 00 80 3f 00 00 80 3f 00 00 80 3f 00 00 80 3f
       1.0 1.0 1.0 1.0

batchnorm2.bias f4 [20]
000000 00 00 00 00 00 00 00 00 00 00 00 00 00 00 00 00
       0.0 0.0 0.0 0.0
000010 00 00 00 00 00 00 00 00 00 00 00 00 00 00 00 00
       0.0 0.0 0.0 0.0
000020 00 00 00 00 00 00 00 00 00 00 00 00 00 00 00 00
       0.0 0.0 0.0 0.0
000030 00 00 00 00 00 00 00 00 00 00 00 00 00 00 00 00
       0.0 0.0 0.0 0.0
000040 00 00 00 00 00 00 00 00 00 00 00 00 00 00 00 00
       0.0 0.0 0.0 0.0

batchnorm2.running_mean f4 [20]
000000 00 00 00 00 00 00 00 00 00 00 00 00 00 00 00 00
       0.0 0.0 0.0 0.0
000010 00 00 00 00 00 00 00 00 00 00 00 00 00 00 00 00
       0.0 0.0 0.0 0.0
000020 00 00 00 00 00 00 00 00 00 00 00 00 00 00 00 00
       0.0 0.0 0.0 0.0
000030 00 00 00 00 00 00 00 00 00 00 00 00 00 00 00 00
       0.0 0.0 0.0 0.0
000040 00 00 00 00 00 00 00 00 00 00 00 00 00 00 00 00
       0.0 0.0 0.0 0.0

batchnorm2.running_var f4 [20]
000000 00 00 80 3f 00 00 80 3f 00 00 80 3f 00 00 80 3f
       1.0 1.0 1.0 1.0
000010 00 00 80 3f 00 00 80 3f 00 00 80 3f 00 00 80 3f
       1.0 1.0 1.0 1.0
000020 00 00 80 3f 00 00 80 3f 00 00 80 3f 00 00 80 3f
       1.0 1.0 1.0 1.0
000030 00 00 80 3f 00 00 80 3f 00 00 80 3f 00 00 80 3f
       1.0 1.0 1.0 1.0
000040 00 00 80 3f 00 00 80 3f 00 00 80 3f 00 00 80 3f
       1.0 1.0 1.0 1.0

batchnorm3.weight f4 [20]
000000 00 00 80 3f 00 00 80 3f 00 00 80 3f 00 00 80 3f
       1.0 1.0 1.0 1.0
000010 00 00 80 3f 00 00 80 3f 00 00 80 3f 00 00 80 3f
       1.0 1.0 1.0 1.0
000020 00 00 80 3f 00 00 80 3f 00 00 80 3f 00 00 80 3f
       1.0 1.0 1.0 1.0
000030 00 00 80 3f 00 00 80 3f 00 00 80 3f 00 00 80 3f
       1.0 1.0 1.0 1.0
000040 00 00 80 3f 00 00 80 3f 00 00 80 3f 00 00 80 3f
       1.0 1.0 1.0 1.0

batchnorm3.bias f4 [20]
000000 00 00 00 00 00 00 00 00 00 00 00 00 00 00 00 00
       0.0 0.0 0.0 0.0
000010 00 00 00 00 00 00 00 00 00 00 00 00 00 00 00 00
       0.0 0.0 0.0 0.0
000020 00 00 00 00 00 00 00 00 00 00 00 00 00 00 00 00
       0.0 0.0 0.0 0.0
000030 00 00 00 00 00 00 00 00 00 00 00 00 00 00 00 00
       0.0 0.0 0.0 0.0
000040 00 00 00 00 00 00 00 00 00 00 00 00 00 00 00 00
       0.0 0.0 0.0 0.0

batchnorm3.running_mean f4 [20]
000000 00 00 00 00 00 00 00 00 00 00 00 00 00 00 00 00
       0.0 0.0 0.0 0.0
000010 00 00 00 00 00 00 00 00 00 00 00 00 00 00 00 00
       0.0 0.0 0.0 0.0
000020 00 00 00 00 00 00 00 00 00 00 00 00 00 00 00 00
       0.0 0.0 0.0 0.0
000030 00 00 00 00 00 00 00 00 00 00 00 00 00 00 00 00
       0.0 0.0 0.0 0.0
000040 00 00 00 00 00 00 00 00 00 00 00 00 00 00 00 00
       0.0 0.0 0.0 0.0

batchnorm3.running_var f4 [20]
000000 00 00 80 3f 00 00 80 3f 00 00 80 3f 00 00 80 3f
       1.0 1.0 1.0 1.0
000010 00 00 80 3f 00 00 80 3f 00 00 80 3f 00 00 80 3f
       1.0 1.0 1.0 1.0
000020 00 00 80 3f 00 00 80 3f 00 00 80 3f 00 00 80 3f
       1.0 1.0 1.0 1.0
000030 00 00 80 3f 00 00 80 3f 00 00 80 3f 00 00 80 3f
       1.0 1.0 1.0 1.0
000040 00 00 80 3f 00 00 80 3f 00 00 80 3f 00 00 80 3f
       1.0 1.0 1.0 1.0
