initial model(on Softplus).pth (torch, 11026 bytes, 16 tensors)

fc1.weight f4 [20, 2]
0.2580847 0.1584171 -0.22474569 -0.16941887 -0.3245169 -0.22803164 -0.35677898 -0.15259618
0.17171073 0.3835258 -0.46775818 0.08388269 -0.09724754 -0.32820922 -0.08424312 -0.12326145
-0.30603153 -0.15753692 0.0021924376 -0.34170526 0.30465627 0.43626356 0.031950533 -0.15920442
-0.31833166 -0.36755025 0.12719756 0.09136909 -0.289963 0.4435798 -0.22031921 -0.4624257
-0.35110354 -0.33926415 0.42071146 -0.48209935 -0.40164477 -0.13296568 0.42348182 0.26393425
00000000: ae23 843e 1838 223e bc23 66be 247c 2dbe
00000010: 1427 a6be 2081 69be bcab b6be 2c42 1cbe
00000020: f0d4 2f3e 7e5d c43e 007e efbe b0ca ab3d
00000030: b829 c7bd 0a0b a8be a887 acbd 8070 fcbd
00000040: 2ab0 9cbe 5c51 21be 00af 0f3b fef3 aebe
00000050: e8fb 9b3e f05d df3e 90de 023d 7c06 23be
00000060: 5efc a2be 8c2f bcbe 1440 023e b81f bb3d
00000070: 0876 94be e41c e33e 5c9b 61be 10c3 ecbe
00000080: d8c3 b3be 08b4 adbe 7e67 d73e bad5 f6be
00000090: 62a4 cdbe 2828 08be 9cd2 d83e 6422 873e

fc2.weight f4 [20, 21]
-0.3272556 -0.13232917 0.20673513 -0.0569728 -0.21388918 0.32352984 -0.49961257 -0.028781354
-0.097801685 -0.39499986 -0.11829013 0.3235221 0.11794126 -0.44698656 -0.39681923 -0.37012547
0.14447796 -0.14324433 0.3523999 0.20175076 -0.018436909 0.09038943 0.307311 0.4682458
-0.018630505 0.19917262 0.079013824 0.2742216 -0.4332471 0.33333403 0.46046913 0.028911531
0.05740899 0.21699321 -0.2368666 0.30778384 -0.31642932 -0.060592353 -0.22940195 0.22403026
0.19091022 0.009726465 0.47764254 0.36987615 -0.06684619 0.025180459 -0.3203832 -0.3468277
-0.023941278 0.42704344 -0.03869462 -0.24958283 -0.16787326 0.40144104 -0.29484802 -0.49834782
-0.25908327 -0.15770853 0.37714463 0.2905591 -0.16290098 0.32784784 0.23165238 0.0021203756
-0.40706193 -0.300241 0.22944123 0.40868944 -0.32535422 -0.24207878 -0.038697362 0.33022994
-0.12079793 0.02915293 -0.39100528 0.07928932 0.31654269 -0.027716458 -0.12799686 0.17569178
-0.34228325 -0.11836994 -0.4543109 -0.07937896 0.2513423 0.4278596 -0.21297371 0.07603091
0.24010408 0.0026298761 0.35479176 0.16967165 -0.1787377 0.17923886 -0.22731185 -0.18686926
0.13196558 -0.38555777 -0.104471505 0.11900377 0.0003299713 0.07037276 0.38700038 0.30886948
-0.18578774 -0.16450787 -0.10096747 -0.42241067 -0.050018907 0.2161752 0.25507587 -0.46024704
0.42315185 0.42167306 -0.21234077 -0.10192245 0.47643405 0.36478645 0.4408266 -0.36396575
0.046656728 0.07162851 0.06498456 -0.37663502 -0.17011023 -0.03352487 0.009707689 0.22323924
0.1746639 -0.45339644 0.22921216 -0.22825938 -0.019378424 0.03715527 -0.35544187 0.44477016
-0.4872238 0.32884115 0.34645987 0.15155101 0.27123946 -0.28902775 -0.32010472 0.088327825
-0.39519453 0.23368561 -0.4304247 0.35926676 0.3178683 0.025010705 -0.46748668 -0.06172186
0.2694463 -0.20212549 0.2037133 0.29444003 0.3433479 -0.30276155 0.33867335 0.2840954
0.49059498 0.03830117 0.01991576 -0.10002875 -0.06926602 -0.32603776 0.46200222 -0.06224543
-0.113839865 0.34451604 -0.48320985 -0.4843549 -0.3514353 0.37075192 0.23261464 -0.05198264
0.03975928 -0.033284664 -0.2611091 -0.0010791421 -0.042972386 0.33357918 -0.03383404 -0.2905212
-0.42676795 0.13147575 -0.16418874 -0.45383805 0.480646 -0.3913759 -0.22200388 0.077537596
-0.21126312 -0.13711959 0.24221927 0.40313357 0.004532695 -0.088344455 0.09837359 -0.19245297
-0.34442705 -0.16806763 0.48860085 0.16470712 -0.14760536 0.19413257 0.04811436 0.3830359
0.039560497 -0.06251848 -0.04306525 0.0462026 -0.47912025 -0.49269354 0.10581839 0.26511693
0.011745036 0.48331952 0.46755767 -0.16493785 0.25975686 0.14622754 -0.33349687 0.34416366
0.35323572 0.09581405 -0.17141551 0.47919643 -0.1837222 0.3792631 0.39989334 -0.26472718
-0.105804384 0.3255185 -0.23912156 -0.20629108 -0.22245347 0.4475597 -0.45283097 0.4074641
0.38616645 -0.25981998 0.011351585 0.16032988 0.011266589 -0.15169698 0.38788068 -0.4165144
-0.10080612 0.24851483 0.37884563 -0.20314783 -0.21563989 -0.4511279 -0.43639493 -0.31550545
00000000: 0c8e a7be 4c81 07be 60b2 533e 505c 69bd
00000010: c405 5bbe b4a5 a53e 38cd ffbe e0c6 ebbc
00000020: 404c c8bd 6c3d cabe 1842 f2bd b0a4 a53e
00000030: 308b f13d 6cdb e4be e42b cbbe 1681 bdbe
00000040: 08f2 133e a4ae 12be c26d b43e c097 4e3e
00000050: 0009 97bc 181e b93d de57 9d3e eabd ef3e
00000060: 009f 98bc e8f3 4b3e 00d2 a13d c666 8c3e
00000070: 90d2 ddbe c2aa aa3e 9cc2 eb3e e0d7 ec3c
00000080: b025 6b3d 7833 5e3e 288d 72be d895 9d3e
00000090: 0603 a2be b02f 78bd 58e8 6abe 3068 653e
000000a0: f87d 433e c05b 1f3c 908d f43e 6860 bd3e
000000b0: a8e6 88bd 4047 ce3c 4409 a4be 6693 b1be
000000c0: 8020 c4bc 70a5 da3e 407e 1ebd a492 7fbe
000000d0: f8e6 2bbe ae89 cd3e 52f6 96be 7227 ffbe
000000e0: 90a6 84be 587e 21be 1a19 c13e 2ac4 943e
000000f0: 84cf 26be acdb a73e 4836 6d3e 00f6 0a3b
00000100: 6c6a d0be 30b9 99be a4f2 6a3e be3f d13e
00000110: d494 a6be 80e3 77be 2081 1ebd e613 a93e
00000120: e864 f7bd 20d2 ee3c d831 c8be 7062 a23d
00000130: e211 a23e a00d e3bc 9c11 03be 8ce8 333e
00000140: c03f afbe f06b f2bd 709b e8be 7091 a2bd
00000150: f0af 803e 6a10 db3e c815 5abe 18b6 9b3d
00000160: d8dd 753e 005a 2c3b 44a7 b53e 68be 2d3e
00000170: 0407 37be 648a 373e 70c4 68be a85a 3fbe
00000180: fc21 073e d467 c5be 28f5 d5bd 40b8 f33d
00000190: 0000 ad39 981f 903d ea24 c63e 2424 9e3e
000001a0: 243f 3ebe c074 28be 08c8 cebd 3646 d8be
000001b0: a0e0 4cbd 085d 5d3e 4e99 823e 80a5 ebbe
000001c0: 5ca7 d83e 88e5 d73e dc6f 59be b8bc d0bd
000001d0: 2aef f33e 4ac5 ba3e 06b4 e13e b859 babe
000001e0: 201b 3f3d f8b1 923d a016 853d 4ed6 c0be
000001f0: 6031 2ebe 6051 09bd 000d 1f3c d498 643e
00000200: 18db 323e 9423 e8be 98b6 6a3e d4bc 69be
00000210: 80bf 9ebc 2030 183d 7afc b5be eab8 e33e
00000220: 6675 f9be de5d a83e 3063 b13e 3030 1b3e
00000230: e6df 8a3e 72fb 93be c4e4 a3be 38e5 b43d
00000240: f056 cabe 484b 6f3e a060 dcbe d0f1 b73e
00000250: a2bf a23e 40e3 cc3c 6a5a efbe 10d0 7cbd
00000260: def4 893e fcf9 4ebe 389a 503e d8c0 963e
00000270: 4ccb af3e 9003 9bbe 9866 ad3e f474 913e
00000280: 442f fb3e b0e1 1c3d 6026 a33c e0db ccbd
00000290: 58db 8dbd 6cee a6be 8e8b ec3e 10f5 7ebd
000002a0: e024 e9bd 6864 b03e 4867 f7be 5efd f7be
000002b0: 54ef b3be 32d3 bd3e 8832 6e3e c0eb 54bd
000002c0: a0da 223d 8055 08bd 18b0 85be 0072 8dba
000002d0: d003 30bd e4ca aa3e 9095 0abd 32bf 94be
000002e0: 5481 dabe 94a1 063e 1821 28be 765d e8be
000002f0: 3c17 f63e 6c62 c8be fc54 63be 08cc 9e3d
00000300: 5c55 58be 1469 0cbe 5408 783e 8667 ce3e
00000310: 0087 943b f0ed b4bd 1878 c93d 6412 45be
00000320: be58 b0be ec19 2cbe e429 fa3e fca8 283e
00000330: dc25 17be b0ca 463e 9013 453d 481d c43e
00000340: 300a 223d b009 80bd 3065 30bd f03e 3d3d
00000350: 404f f5be 5442 fcbe 50b7 d83d 68bd 873e
00000360: 406e 403c a875 f73e b863 ef3e 78e5 28be
00000370: dafe 843e acbc 153e 1ac0 aabe 3836 b03e
00000380: 50db b43e 283a c43d 8c87 2fbe 3c59 f53e
00000390: ac21 3cbe c62e c23e d2be cc3e 528a 87be
000003a0: f8af d8bd 5caa a63e 48dc 74be f83d 53be
000003b0: d8ca 63be 8c26 e53e 76d9 e7be 229f d03e
000003c0: 9cb7 c53e 2007 85be 00fc 393c 842d 243e
000003d0: 8097 383c 7456 1bbe 4c98 c63e 6041 d5be
000003e0: 7073 cebd ac7a 7e3e 0ef8 c13e fc05 50be
000003f0: b4d0 5cbe 3cfa e6be 286f dfbe ee89 a1be

fc3.weight f4 [20, 21]
0.324569 -0.43512046 0.44921255 0.46732432 0.1482693 0.044228554 -0.33880198 0.01346761
0.32285506 -0.11702031 0.38567507 0.41466975 -0.26904893 -0.25125152 0.11151397 -0.110771656
0.15843779 0.48935843 -0.017552435 -0.48964036 -0.086553335 -0.20508492 0.21811873 0.13822585
0.39080983 0.28183347 0.3711633 -0.26729977 0.3656966 -0.29788512 0.4625265 -0.0188483
-0.07762939 0.38259166 -0.027180612 0.07061005 -0.27523148 -0.09598619 -0.050543725 -0.22353429
-0.462138 -0.38787252 -0.44506395 -0.06411147 -0.09983629 -0.11052096 0.11516744 0.026308358
0.38940054 -0.03996873 0.09258348 -0.33026767 -0.45566875 0.030137718 0.34939158 0.45876145
-0.1372391 0.46885586 -0.10736567 -0.30832285 -0.4892279 0.47066975 -0.26403445 0.42980933
-0.4089706 0.17552584 0.07585591 0.08072233 0.15578163 -0.23911434 0.492918 -0.47656006
-0.44432265 0.20333624 0.120097935 -0.39883542 -0.47123092 0.17612392 0.18963057 -0.19528514
-0.25313872 0.19665521 0.43388385 0.036444664 -0.31638896 0.21357161 0.27174634 0.28996766
-0.388322 0.15059006 -0.38205677 -0.43446767 0.42176616 -0.45135218 -0.45311052 -0.23018688
-0.2763188 -0.08518326 -0.42318946 0.24480677 0.39875978 0.045950234 0.08894378 0.16245687
-0.3786351 -0.2644456 -0.15954447 -0.19289178 -0.15568733 -0.15050375 -0.00870496 0.42710954
-0.12746322 0.41621166 0.4659711 0.3556695 0.4030186 -0.039477766 0.018630326 -0.16891003
0.44186896 0.058202446 0.43720227 0.25102514 -0.23242229 0.182289 0.35309243 0.20371169
0.457664 -0.3124243 -0.075220466 0.09952974 0.25966024 -0.024024725 0.2756245 0.48800254
0.42581058 0.16757512 0.2267552 0.029123008 0.36794335 0.26111048 0.39427024 -0.38929546
0.46947026 0.3203838 -0.49240464 -0.2919895 0.27935243 0.44824427 -0.32546043 -0.10956907
0.49304777 -0.37803614 0.38750035 0.35752243 -0.3995787 -0.08404219 0.22959161 0.0015294552
0.04672748 -0.4845125 -0.13707113 0.042859197 -0.4987309 0.042236745 -0.111664176 0.023324728
-0.012907922 0.40533555 0.1271581 0.28677797 -0.14784586 0.0472399 -0.27250844 -0.05402583
-0.31087 -0.055497825 -0.45795023 0.1543628 0.063972294 0.4763807 -0.4017517 0.09153986
-0.49459952 -0.21349734 0.23398203 0.469231 0.045766175 -0.21891636 0.4018628 -0.22202003
-0.46208072 -0.25043803 -0.18066615 -0.37131917 -0.20732456 0.19140565 0.041223228 0.27587634
-0.1775986 -0.4567666 0.17502296 -0.24302518 0.04477638 -0.44678634 -0.32069486 -0.19954532
-0.176736 0.124851406 0.22561443 -0.24290556 0.3244248 0.16071278 0.22154939 0.43044746
-0.06355107 0.063221514 -0.45665824 0.13637334 0.118956685 0.30151874 -0.26130098 0.29998165
-0.31273115 0.29233044 0.13201857 0.20401281 0.0748415 -0.43047035 -0.22091311 0.029999077
-0.23104233 -0.282784 -0.41497856 -0.45413333 -0.17817253 0.21778613 -0.09244138 -0.08172494
-0.3281082 0.28181875 0.44733834 -0.36218816 -0.15241629 -0.10958183 -0.49836886 0.3537569
-0.014756322 -0.47530705 -0.45422667 -0.33260733 0.38717455 -0.08632594 -0.07378191 0.24933344
00000000: e82d a63e 1cc8 debe 30ff e53e 2245 ef3e
00000010: e8d3 173e 0029 353d 7477 adbe 40a7 5c3c
00000020: 424d a53e 58a8 efbd 3477 c53e 984f d43e
00000030: c8c0 89be 0aa4 80be 7061 e43d 40dc e2bd
00000040: 843d 223e 308d fa3e 20ca 8fbc 24b2 fabe
00000050: e042 b1bd c801 52be 845a 5f3e 148b 0d3e
00000060: 3a18 c83e 7a4c 903e 1e09 be3e 84db 88be
00000070: 963c bb3e 6684 98be 46d0 ec3e c067 9abc
00000080: 28fc 9ebd 0ee3 c33e e0a9 debc 009c 903d
00000090: 24eb 8cbe 6894 c4bd f006 4fbd 2ce6 64be
000000a0: 5a9d ecbe 3a97 c6be 6cdf e3be e04c 83bd
000000b0: f876 ccbd d058 e2bd e8dc eb3d a084 d73c
000000c0: 825f c73e 40b6 23bd 689c bd3d d818 a9be
000000d0: 6a4d e9be 60e3 f63c 74e3 b23e c8e2 ea3e
000000e0: 6888 0cbe e00d f03e 88e2 dbbd 7edc 9dbe
000000f0: 147c fabe a0fb f03e 862f 87be f80f dc3e
00000100: 9864 d1be 0cbd 333e 585a 9b3d c051 a53d
00000110: 3885 1f3e 64da 74be c05f fc3e aeff f3be
00000120: 427e e3be 6037 503e e8f5 f53d 2834 ccbe
00000130: 2e45 f1be d459 343e 842e 423e d4f8 47be
00000140: 669b 81be fc5f 493e 0626 de3e 0047 153d
00000150: bcfd a1be 84b2 5a3e 5622 8b3e a476 943e
00000160: 24d2 c6be 4834 1a3e f29c c3be 8c72 debe
00000170: bcf1 d73e a217 e7be 1afe e7be 1cb6 6bbe
00000180: a879 8dbe 9074 aebd 4aac d8be a0ae 7a3e
00000190: 3e2a cc3e 5036 3c3d 2828 b63d 185b 263e
000001a0: 76dc c1be 6a65 87be a05f 23be 6c85 45be
000001b0: 806c 1fbe a81d 1abe 409f 0ebc 1aae da3e
000001c0: b885 02be b219 d53e c493 ee3e 501a b63e
000001d0: 7458 ce3e 70b3 21bd a09e 983c c0f6 2cbe
000001e0: a63c e23e b065 6e3d fad8 df3e 5e86 803e
000001f0: 1c00 6ebe f8a9 3a3e 88c8 b43e cc99 503e
00000200: f052 ea3e 14f6 9fbe 300d 9abd 40d6 cb3d
00000210: 30f2 843e 80cf c4bc a81e 8d3e 78db f93e
00000220: d803 da3e d098 2b3e 8432 683e 6093 ee3c
00000230: 1263 bc3e 46b0 853e cadd c93e bc51 c7be
00000240: 685e f03e 5809 a43e 761c fcbe a67f 95be
00000250: 4807 8f3e 4680 e53e c0a2 a6be c065 e0bd
00000260: c270 fc3e f48d c1be 7266 c63e 2e0d b73e
00000270: 9495 ccbe 501e acbd 101a 6b3e 0078 c83a
00000280: 5065 3f3d 0612 f8be 605c 0cbe 208d 2f3d
00000290: a859 ffbe 7000 2d3d 30b0 e4bd 8013 bf3c
000002a0: c07b 53bc 2488 cf3e bc35 023e 90d4 923e
000002b0: e864 17be a07e 413d 3a86 8bbe 304a 5dbd
000002c0: 5a2a 9fbe b051 63bd 7478 eabe 4811 1e3e
000002d0: e803 833d 2ce8 f33e 66b2 cdbe 4079 bb3d
000002e0: 263c fdbe 0c9f 5abe fc98 6f3e 0c3f f03e
000002f0: 5075 3b3d 9c2b 60be f6c0 cd3e 3859 63be
00000300: d895 ecbe 6a39 80be 8c00 39be 8c1d bebe
00000310: e44c 54be d8ff 433e b0d9 283d aa3f 8d3e
00000320: 68dc 35be 50dd e9be 3839 333e 98db 78be
00000330: 7067 373d 2ec1 e4be 1e32 a4be 9c55 4cbe
00000340: 48fa 34be 18b2 ff3d 7807 673e 3cbc 78be
00000350: 021b a63e e491 243e d8dd 623e 9c63 dc3e
00000360: 1027 82bd 487a 813d 1ccf e9be 74a5 0b3e
00000370: 909f f33d aa60 9a3e 3ec9 85be 3297 993e
00000380: 4c1e a0be 56ac 953e e02f 073e bce8 503e
00000390: 8046 993d 9c66 dcbe 0c37 62be a0c0 f53c
000003a0: 5c96 6cbe 10c9 90be 1278 d4be 2a84 e8be
000003b0: dc72 36be 5403 5f3e e851 bdbd 685f a7bd
000003c0: ccfd a7be 8c4a 903e 8809 e53e ba70 b9be
000003d0: 0413 1cbe 706c e0bd 342a ffbe a01f b53e
000003e0: 80c4 71bc 725b f3be 6690 e8be 824b aabe
000003f0: be3b c63e a8cb b0bd f81a 97bd 4451 7f3e

fc4.weight f4 [1, 21]
0.24158806 -0.290703 0.33377433 -0.49572456 0.033103526 0.10877627 0.3536839 0.32247597
-0.47232568 -0.402135 -0.3559807 -0.45681816 -0.44197577 -0.09577167 -0.106731474 -0.106209815
0.20974427 0.44630015 0.38310724 -0.30818194 0.015757501
00000000: dc62 773e 06d7 94be 78e4 aa3e 9ccf fdbe
00000010: 9097 073d 18c6 de3d 0e16 b53e 921b a53e
00000020: acd4 f1be a4e4 cdbe 1a43 b6be 12e4 e9be
00000030: a64a e2be f023 c4bd 0896 dabd 8884 d9bd
00000040: 34c7 563e 7481 e43e a226 c43e 06ca 9dbe
00000050: e015 813c

batchnorm1.weight f4 [20]
1.0 1.0 1.0 1.0 1.0 1.0 1.0 1.0
1.0 1.0 1.0 1.0 1.0 1.0 1.0 1.0
1.0 1.0 1.0 1.0
00000000: 0000 803f 0000 803f 0000 803f 0000 803f
00000010: 0000 803f 0000 803f 0000 803f 0000 803f
00000020: 0000 803f 0000 803f 0000 803f 0000 803f
00000030: 0000 803f 0000 803f 0000 803f 0000 803f
00000040: 0000 803f 0000 803f 0000 803f 0000 803f

batchnorm1.bias f4 [20]
0.0 0.0 0.0 0.0 0.0 0.0 0.0 0.0
0.0 0.0 0.0 0.0 0.0 0.0 0.0 0.0
0.0 0.0 0.0 0.0
00000000: 0000 0000 0000 0000 0000 0000 0000 0000
00000010: 0000 0000 0000 0000 0000 0000 0000 0000
00000020: 0000 0000 0000 0000 0000 0000 0000 0000
00000030: 0000 0000 0000 0000 0000 0000 0000 0000
00000040: 0000 0000 0000 0000 0000 0000 0000 0000

batchnorm1.running_mean f4 [20]
0.0 0.0 0.0 0.0 0.0 0.0 0.0 0.0
0.0 0.0 0.0 0.0 0.0 0.0 0.0 0.0
0.0 0.0 0.0 0.0
00000000: 0000 0000 0000 0000 0000 0000 0000 0000
00000010: 0000 0000 0000 0000 0000 0000 0000 0000
00000020: 0000 0000 0000 0000 0000 0000 0000 0000
00000030: 0000 0000 0000 0000 0000 0000 0000 0000
00000040: 0000 0000 0000 0000 0000 0000 0000 0000

batchnorm1.running_var f4 [20]
1.0 1.0 1.0 1.0 1.0 1.0 1.0 1.0
1.0 1.0 1.0 1.0 1.0 1.0 1.0 1.0
1.0 1.0 1.0 1.0
00000000: 0000 803f 0000 803f 0000 803f 0000 803f
00000010: 0000 803f 0000 803f 0000 803f 0000 803f
00000020: 0000 803f 0000 803f 0000 803f 0000 803f
00000030: 0000 803f 0000 803f 0000 803f 0000 803f
00000040: 0000 803f 0000 803f 0000 803f 0000 803f

batchnorm2.weight f4 [20]
1.0 1.0 1.0 1.0 1.0 1.0 1.0 1.0
1.0 1.0 1.0 1.0 1.0 1.0 1.0 1.0
1.0 1.0 1.0 1.0
00000000: 0000 803f 0000 803f 0000 803f 0000 803f
00000010: 0000 803f 0000 803f 0000 803f 0000 803f
00000020: 0000 803f 0000 803f 0000 803f 0000 803f
00000030: 0000 803f 0000 803f 0000 803f 0000 803f
00000040: 0000 803f 0000 803f 0000 803f 0000 803f

batchnorm2.bias f4 [20]
0.0 0.0 0.0 0.0 0.0 0.0 0.0 0.0
0.0 0.0 0.0 0.0 0.0 0.0 0.0 0.0
0.0 0.0 0.0 0.0
00000000: 0000 0000 0000 0000 0000 0000 0000 0000
00000010: 0000 0000 0000 0000 0000 0000 0000 0000
00000020: 0000 0000 0000 0000 0000 0000 0000 0000
00000030: 0000 0000 0000 0000 0000 0000 0000 0000
00000040: 0000 0000 0000 0000 0000 0000 0000 0000

batchnorm2.running_mean f4 [20]
0.0 0.0 0.0 0.0 0.0 0.0 0.0 0.0
0.0 0.0 0.0 0.0 0.0 0.0 0.0 0.0
0.0 0.0 0.0 0.0
00000000: 0000 0000 0000 0000 0000 0000 0000 0000
00000010: 0000 0000 0000 0000 0000 0000 0000 0000
00000020: 0000 0000 0000 0000 0000 0000 0000 0000
00000030: 0000 0000 0000 0000 0000 0000 0000 0000
00000040: 0000 0000 0000 0000 0000 0000 0000 0000

batchnorm2.running_var f4 [20]
1.0 1.0 1.0 1.0 1.0 1.0 1.0 1.0
1.0 1.0 1.0 1.0 1.0 1.0 1.0 1.0
1.0 1.0 1.0 1.0
00000000: 0000 803f 0000 803f 0000 803f 0000 803f
00000010: 0000 803f 0000 803f 0000 803f 0000 803f
00000020: 0000 803f 0000 803f 0000 803f 0000 803f
00000030: 0000 803f 0000 803f 0000 803f 0000 803f
00000040: 0000 803f 0000 803f 0000 803f 0000 803f

batchnorm3.weight f4 [20]
1.0 1.0 1.0 1.0 1.0 1.0 1.0 1.0
1.0 1.0 1.0 1.0 1.0 1.0 1.0 1.0
1.0 1.0 1.0 1.0
00000000: 0000 803f 0000 803f 0000 803f 0000 803f
00000010: 0000 803f 0000 803f 0000 803f 0000 803f
00000020: 0000 803f 0000 803f 0000 803f 0000 803f
00000030: 0000 803f 0000 803f 0000 803f 0000 803f
00000040: 0000 803f 0000 803f 0000 803f 0000 803f

batchnorm3.bias f4 [20]
0.0 0.0 0.0 0.0 0.0 0.0 0.0 0.0
0.0 0.0 0.0 0.0 0.0 0.0 0.0 0.0
0.0 0.0 0.0 0.0
00000000: 0000 0000 0000 0000 0000 0000 0000 0000
00000010: 0000 0000 0000 0000 0000 0000 0000 0000
00000020: 0000 0000 0000 0000 0000 0000 0000 0000
00000030: 0000 0000 0000 0000 0000 0000 0000 0000
00000040: 0000 0000 0000 0000 0000 0000 0000 0000

batchnorm3.running_mean f4 [20]
0.0 0.0 0.0 0.0 0.0 0.0 0.0 0.0
0.0 0.0 0.0 0.0 0.0 0.0 0.0 0.0
0.0 0.0 0.0 0.0
00000000: 0000 0000 0000 0000 0000 0000 0000 0000
00000010: 0000 0000 0000 0000 0000 0000 0000 0000
00000020: 0000 0000 0000 0000 0000 0000 0000 0000
00000030: 0000 0000 0000 0000 0000 0000 0000 0000
00000040: 0000 0000 0000 0000 0000 0000 0000 0000

batchnorm3.running_var f4 [20]
1.0 1.0 1.0 1.0 1.0 1.0 1.0 1.0
1.0 1.0 1.0 1.0 1.0 1.0 1.0 1.0
1.0 1.0 1.0 1.0
00000000: 0000 803f 0000 803f 0000 803f 0000 803f
00000010: 0000 803f 0000 803f 0000 803f 0000 803f
00000020: 0000 803f 0000 803f 0000 803f 0000 803f
00000030: 0000 803f 0000 803f 0000 803f 0000 803f
00000040: 0000 803f 0000 803f 0000 803f 0000 803f
