initial model(on LeakyReLU).pth (torch, 11049 bytes, 16 tensors)

fc1.weight f4 [20, 2]
-0.07117236 0.24257463 -0.46806931 -0.28721285 -0.48825437 -0.09820646 0.10411686 0.1919846
0.47332418 -0.17355955 -0.23830456 -0.010966301 -0.07657695 0.43723786 0.26606292 -0.05530083
0.23573911 -0.14219165 -0.27481198 0.4256009 0.26576763 -0.43874717 0.33232838 0.17716908
-0.43429422 -0.12675685 -0.16172343 0.011518121 -0.10479224 -0.044194162 -0.04249692 0.35562944
0.4764939 -0.15471089 -0.37244922 0.2864458 -0.3379615 -0.20851403 -0.105923295 0.07582104
00000000: d0c2 91bd 7c65 783e c8a6 efbe 900d 93be
00000010: 7afc f9be 7820 c9bd 383b d53d 9c97 443e
00000020: 8c57 f23e 98b9 31be 1c06 74be 00ac 33bc
00000030: 60d4 9cbd a4dd df3e 6639 883e 2083 62bd
00000040: 9865 713e b09a 11be 28b4 8cbe 5ce8 d93e
00000050: b212 883e 78a3 e0be f226 aa3e d06b 353e
00000060: d05b debe 8ccc 01be d49a 25be 80b6 3c3c
00000070: 509d d6bd f004 35bd 4011 2ebd 1015 b63e
00000080: 02f7 f33e 886c 1ebe aab1 bebe 06a9 923e
00000090: 4a09 adbe b484 55be 50ee d8bd 1048 9b3d

fc2.weight f4 [20, 21]
-0.026621819 -0.40922648 0.47663736 -0.21077108 0.39745516 0.008616209 0.23106891 -0.122962
-0.086174786 0.12154651 0.17690772 -0.32759333 0.3230387 0.48479283 -0.14543313 -0.046001554
-0.43119437 -0.040588915 -0.41779983 0.15108263 -0.4896779 -0.3893414 -0.46571106 0.4860198
-0.08999419 0.4100976 0.45153284 -0.2927608 0.0008596778 -0.0632754 0.10030234 -0.350393
0.31955332 -0.49330217 0.14026272 -0.3883987 -0.34367758 -0.20353675 0.46223128 0.17592555
0.3577742 -0.035337806 -0.2301386 -0.22509801 -0.05946821 0.39604217 -0.35767692 0.3656789
-0.21007472 -0.0832414 0.4578249 0.21979451 0.413081 -0.47874427 0.24571109 -0.18995637
-0.19183123 -0.10166067 -0.26892668 -0.14971083 0.30154163 0.05635512 -0.41972488 -0.25543618
-0.30970055 -0.29069394 -0.250543 -0.23295075 0.3102222 0.37088895 0.40993303 -0.33132958
0.13337874 0.08556235 -0.32347947 -0.37010378 0.17070699 0.09302187 0.12684762 -0.027280807
0.43061513 -0.33920842 0.4821878 -0.031425178 0.32346028 0.17185515 -0.28454518 0.4327013
0.151577 -0.044365168 0.47653896 -0.3010288 -0.2202717 -0.24891502 -0.061296225 0.12802213
-0.38695318 0.12479949 -0.19482446 -0.47078484 0.2923388 -0.19655746 -0.2844432 -0.00037139654
-0.039666176 -0.025206327 -0.29880923 0.4502203 -0.49541956 -0.08823621 -0.052455008 0.47463804
-0.087857425 0.30793685 0.15917176 -0.31870115 -0.044606745 0.21079612 -0.16468638 0.31933004
-0.38812655 0.16916335 -0.30881643 0.17061996 -0.2897632 0.37151408 0.47725117 -0.3489732
0.41716242 0.28923845 -0.091230035 -0.04675907 0.26835167 0.3630231 -0.009902954 0.46329635
-0.4014272 0.4536082 0.20825613 -0.18122184 -0.12798959 0.45563453 0.38075697 -0.07637954
-0.45635659 -0.27118963 -0.15567946 -0.14839429 -0.22346175 0.13688362 -0.112389565 -0.29037642
-0.09008992 -0.13488412 0.36090416 0.24564421 0.019752204 0.42238736 0.007340908 -0.27299345
0.11538392 -0.013241053 0.41472673 -0.28248757 -0.12828225 -0.3025841 0.44932187 -0.14053279
-0.2539237 -0.15365005 0.202066 0.181975 -0.4989397 0.40704888 -0.42773056 -0.2179091
0.37500274 -0.117764115 0.3475747 -0.12892759 -0.4754964 -0.10873687 0.088810265 -0.11906803
-0.14280444 0.13198477 0.32167512 0.16249484 -0.07923198 0.40245205 -0.114549875 0.48756403
-0.05554813 0.3241458 0.08451456 -0.22700864 0.33205962 -0.1360063 0.33858305 -0.21157855
-0.06371522 -0.013480008 -0.4166032 -0.28399903 0.20427084 -0.019436836 -0.49625283 -0.3407749
-0.37132728 0.14425248 -0.49601197 0.25833398 0.4531023 -0.04995489 0.022197425 0.4176265
-0.33526605 0.20658767 0.048290372 0.0075325966 -0.27367634 0.062241733 0.10273093 0.37367433
0.2639447 0.49621803 -0.3700245 0.45130533 0.34104627 -0.31861913 -0.49515998 0.31391066
0.11014068 0.076820254 -0.43083632 -0.40454185 0.29181588 0.16788024 -0.07179052 -0.39935017
0.07150763 0.017060757 0.08517414 0.26041567 -0.37957513 0.2664703 -0.3910907 0.03853202
-0.2637503 0.29001105 0.219154 0.32870525 -0.1450746 -0.4047026 0.3353511 -0.22193909
00000000: 0016 dabc 2286 d1be d009 f43e 60d4 57be
00000010: 3e7f cb3e 002b 0d3c 549d 6c3e 80d3 fbbd
00000020: 687c b0bd 60ed f83d 4c27 353e 50ba a7be
00000030: 5465 a53e c436 f83e 6cec 14be 206c 3cbd
00000040: 82c5 dcbe 9040 26bd dce9 d5be 68b5 1a3e
00000050: 10b7 fabe c257 c7be ae71 eebe 96d7 f83e
00000060: e04e b8bd 50f8 d13e 502f e73e bee4 95be
00000070: 005c 613a 8896 81bd 506b cd3d b666 b3be
00000080: 7e9c a33e 1a92 fcbe 08a1 0f3e 32dc c6be
00000090: 82f6 afbe f06b 50be 94a9 ec3e d425 343e
000000a0: 2e2e b73e 60be 10bd 74a9 6bbe 1880 66be
000000b0: f094 73bd 0ac6 ca3e 6e21 b7be 443a bb3e
000000c0: d41d 57be 787a aabd 0668 ea3e d011 613e
000000d0: 5a7f d33e f81d f5be b09b 7b3e ec83 42be
000000e0: 686f 44be 7833 d0bd c2b0 89be cc4d 19be
000000f0: aa63 9a3e a0d4 663d 2ee6 d6be 88c8 82be
00000100: 1291 9ebe d6d5 94be 2c47 80be a48a 6ebe
00000110: 72d5 9e3e 28e5 bd3e bee2 d13e 08a4 a9be
00000120: 7094 083e 503b af3d 1a9f a5be 3e7e bdbe
00000130: d0cd 2e3e 4082 be3d 58e4 013e 007c dfbc
00000140: 9679 dc3e baac adbe 52e1 f63e b0b7 00bd
00000150: 969c a53e ccfa 2f3e e8af 91be 068b dd3e
00000160: 0037 1b3e 40b8 35bd eafc f33e 7220 9abe
00000170: e88e 61be 94e3 7ebe c011 7bbd 3c18 033e
00000180: ba1e c6be e096 ff3d 1080 47be b60a f1be
00000190: 6ead 953e 5c46 49be 8aa2 91be 00b8 c2b9
000001a0: 0079 22bd 807d cebc 86fd 98be 4683 e63e
000001b0: a2a7 fdbe 30b5 b4bd 10db 56bd c203 f33e
000001c0: 98ee b3bd e6a9 9d3e ecfd 223e cc2c a3be
000001d0: 90b5 36bd f0da 573e 8ca3 28be 3a7f a33e
000001e0: 86b8 c6be 2839 2d3e 301d 9ebe 00b7 2e3e
000001f0: d85b 94be 1837 be3e 445a f43e 9eac b2be
00000200: 5096 d53e 1017 943e d0d6 babd 7086 3fbd
00000210: 6465 893e 2ade b93e 0040 22bc 2e35 ed3e
00000220: de87 cdbe 563f e83e 1841 553e 3892 39be
00000230: b40f 03be ee48 e93e 94f2 c23e e06c 9cbd
00000240: 92a7 e9be 5ed9 8abe 706a 1fbe acf4 17be
00000250: 28d3 64be 382b 0c3e 802c e6bd 38ac 94be
00000260: 1081 b8bd 101f 0abe 6ec8 b83e 288a 7b3e
00000270: 60cf a13c 2843 d83e 008c f03b ccc5 8bbe
00000280: 684e ec3d 00f1 58bc 1057 d43e 36a2 90be
00000290: 6c5c 03be 4eec 9abe 840d e63e d4e7 0fbe
000002a0: 4a02 82be 7056 1dbe 64ea 4e3e a857 3a3e
000002b0: 0675 ffbe b668 d03e 80ff dabe 9023 5fbe
000002c0: 5c00 c03e 502e f1bd 50f5 b13e 9805 04be
000002d0: 4474 f3be 70b1 debd 28e2 b53d f0d9 f3bd
000002e0: 543b 12be 0427 073e 9ab2 a43e 0c65 263e
000002f0: 6044 a2bd 320e ce3e 2099 eabd fea1 f93e
00000300: 7086 63bd 70f6 a53e f815 ad3d f474 68be
00000310: b803 aa3e 3c45 0bbe c25a ad3e 0ca8 58be
00000320: 207d 82bd 40db 5cbc 044d d5be 5268 91be
00000330: 602c 513e 003a 9fbc da14 febe 0c7a aebe
00000340: 9c1e bebe ecb6 133e 48f5 fdbe 5a44 843e
00000350: 06fd e73e 809d 4cbd 60d7 b53c 24d3 d53e
00000360: fea7 abbe b88b 533e 20cc 453d 00d4 f63b
00000370: 4e1f 8cbe 30f1 7e3d 9864 d23d 3e52 bf3e
00000380: c223 873e 4a10 fe3e da73 bdbe 7e11 e73e
00000390: 9e9d ae3e 0c22 a3be 9c85 fdbe e6b8 a03e
000003a0: 7091 e13d f053 9d3d 9496 dcbe 1c20 cfbe
000003b0: e468 953e cce8 2b3e e806 93bd a077 ccbe
000003c0: 9872 923d 00c3 8b3c c86f ae3d 3455 853e
000003d0: ac57 c2be cc6e 883e 0a3d c8be c0d3 1d3d
000003e0: 480a 87be 547c 943e e869 603e 0e4c a83e
000003f0: 708e 14be 2e35 cfbe 24b3 ab3e 0044 63be

fc3.weight f4 [20, 21]
-0.29991663 0.30946058 0.26394886 0.32803708 0.22091907 -0.16095054 0.4935528 0.031484604
-0.0762732 0.16088754 0.17872196 -0.26163 -0.48556602 -0.20224124 -0.2633193 -0.10240799
-0.10915089 0.14900178 -0.18431139 -0.03255999 0.03164953 0.15959853 -0.31805724 0.18442899
-0.32691777 0.30340898 -0.42275107 0.21271598 0.3661666 0.3529591 0.21450251 0.1598435
0.14291406 0.013001025 0.10881215 -0.16617215 -0.4692055 -0.159994 0.1175518 0.4459749
0.1672821 -0.2440893 -0.47993135 -0.043192267 0.43898052 0.019090593 -0.030667901 -0.247141
-0.42507112 -0.43479592 -0.38684553 0.3130049 -0.49875182 -0.33507866 -0.10138029 -0.4230613
0.45323992 0.4671592 0.49561238 -0.3181824 -0.32388943 0.12976229 0.23213416 0.094786584
-0.27413905 -0.42120683 0.23109448 0.35739684 -0.011465132 -0.4487455 0.4047494 0.40555662
-0.47693497 -0.40260714 -0.12088293 -0.44096416 0.06496489 -0.22291273 0.39665216 -0.2608652
-0.04549414 0.24004567 0.14883053 -0.2455709 -0.14581215 0.48665512 0.34560877 -0.2851041
-0.4676956 0.091528475 -0.14001751 0.2811315 -0.40138853 -0.46575975 -0.43318278 0.058313847
-0.48515123 -0.43668807 -0.16024292 -0.03363222 0.034341812 0.42035735 0.25096858 0.024957478
0.18079507 -0.27085108 0.40222287 0.22866595 0.39054275 0.21792966 0.49080008 0.39692044
-0.21915084 -0.13816029 0.24802 -0.3889091 0.14400226 0.0018771887 0.095437825 0.3130145
-0.2734424 0.16027683 -0.10322219 -0.4221148 -0.08566815 -0.22116166 0.14727718 0.040963113
-0.07435763 -0.35453564 0.16020685 -0.21920538 -0.05335921 0.05692798 0.038651347 0.15990895
0.08942801 -0.34554178 0.06926072 -0.012629449 -0.26573336 -0.36721528 -0.4508254 -0.38451934
0.26017326 -0.101769805 0.06413627 0.2553615 -0.41095525 0.13064498 0.49433863 0.24960846
0.30808705 0.2123617 -0.30170393 -0.04335773 0.4224478 0.109808266 -0.25561613 -0.198883
0.44412827 -0.29380113 -0.3839234 -0.287616 -0.14088732 0.24024093 0.2136187 -0.26250273
0.28985614 -0.26589853 -0.18177766 -0.2103827 0.4614885 0.14276242 0.19353265 -0.08918798
0.18120342 -0.24339598 0.32627612 0.4116426 -0.20020396 0.062487543 0.1577301 0.37084562
-0.23522311 0.07826674 0.15618807 0.31773806 -0.36317605 0.37564188 0.39347404 -0.23943895
0.47083426 0.49831486 -0.4122789 -0.19567889 0.037588656 0.028417587 -0.35108292 0.23748428
-0.15996844 0.3943314 0.38961905 -0.16095763 -0.48090315 0.07342732 0.49760222 -0.17382908
0.13815731 -0.21413314 0.1261512 0.11836958 0.41395515 0.00093615055 0.4844604 0.2877773
0.37101805 0.2775995 -0.47978026 -0.24378222 0.15264118 -0.047389507 -0.39814776 -0.42837316
-0.054630756 0.020046175 0.4905942 -0.1266666 0.46581697 0.0024445057 -0.06296462 0.15560311
0.4227146 -0.26439065 0.21900713 -0.0572744 0.43833035 0.1397556 -0.370443 -0.3012178
0.043788433 0.19025439 0.420663 0.14064747 -0.11881447 0.023909807 -0.34861904 0.24433309
0.38599145 -0.35632044 -0.08933169 -0.4963255 -0.30128312 -0.31958354 -0.32901305 0.32985026
00000000: ac8e 99be 9e71 9e3e 4e24 873e 7af4 a73e
00000010: 9c38 623e 38d0 24be f4b2 fc3e 00f6 003d
00000020: 2035 9cbd b4bf 243e e402 373e 5ef4 85be
00000030: 1c9c f8be 5418 4fbe cad1 86be 48bb d1bd
00000040: 808a dfbd ec93 183e 20bc 3cbe a05d 05bd
00000050: f0a2 013d cc6d 233e 66d8 a2be f4da 3c3e
00000060: c461 a7be 6c58 9b3e d472 d8be 38d2 593e
00000070: 307a bb3e 0eb7 b43e 8ca6 5b3e 04ae 233e
00000080: 1058 123e 4002 553c e8d8 de3d 0829 2abe
00000090: b43b f0be 78d5 23be 00bf f03d d256 e43e
000000a0: 004c 2b3e 8cf2 79be 90b9 f5be 60ea 30bd
000000b0: 0ec2 e03e e063 9c3c 403b fbbc 8812 7dbe
000000c0: eca2 d9be 929d debe 9e10 c6be 2e42 a03e
000000d0: 665c ffbe 6e8f abbe 78a0 cfbd 7e9b d8be
000000e0: 100f e83e 7e2f ef3e e8c0 fd3e cee8 a2be
000000f0: d6d4 a5be 68e0 043e 94b4 6d3e 781f c23d
00000100: f45b 8cbe 6ca8 d7be 08a4 6c3e b8fc b63e
00000110: 40d8 3bbc f8c1 e5be 503b cf3e 1ea5 cf3e
00000120: d230 f4be 8622 cebe 7891 f7bd 0ec6 e1be
00000130: 500c 853d 3c43 64be fe15 cb3e 2090 85be
00000140: 1058 3abd 88ce 753e 0867 183e f076 7bbe
00000150: c84f 15be dc2a f93e a2f3 b03e 2af9 91be
00000160: cc75 efbe 4873 bb3d c060 0fbe 78f0 8f3e
00000170: cc82 cdbe 1078 eebe 22ca ddbe 80da 6e3d
00000180: be65 f8be 9495 dfbe b816 24be f0c1 09bd
00000190: 00aa 0c3d 1439 d73e f47e 803e a073 cc3c
000001a0: 5822 393e feac 8abe 28f0 cd3e 6827 6a3e
000001b0: 38f5 c73e f428 5f3e 264a fb3e 2839 cb3e
000001c0: 1469 60be e479 0dbe f4f8 7d3e 181f c7be
000001d0: 5475 133e 000c f63a e874 c33d 7043 a03e
000001e0: a400 8cbe 9c1f 243e 2866 d3bd 6e1f d8be
000001f0: c872 afbd 3478 62be d4cf 163e f0c8 273d
00000200: d048 98bd b285 b5be 440d 243e 6077 60be
00000210: 308f 5abd 502d 693d e050 1e3d 2cbf 233e
00000220: 0826 b73d daea b0be 90d8 8d3d c0eb 4ebc
00000230: 340e 88be a403 bcbe 96d2 e6be b8df c4be
00000240: 6e35 853e b06c d0bd e059 833d bebe 823e
00000250: ba68 d2be ccc7 053e f419 fd3e 5c99 7f3e
00000260: 96bd 9d3e 5875 593e f078 9abe e097 31bd
00000270: 144b d83e 28e3 e03d 1ee0 82be fca7 4bbe
00000280: c864 e33e 1a6d 96be 9c91 c4be 6842 93be
00000290: c444 10be b801 763e dcbe 5a3e c266 86be
000002a0: 0668 943e da23 88be ec23 3abe 906e 57be
000002b0: 3848 ec3e 5030 123e 6c2d 463e 30a8 b6bd
000002c0: 648d 393e cc3c 79be aa0d a73e d2c2 d23e
000002d0: 4402 4dbe f0f2 7f3d 0084 213e 7adf bd3e
000002e0: 54de 70be 504a a03d c4ef 1f3e 90ae a23e
000002f0: 36f2 b9be 2254 c03e 6e75 c93e 7c2f 75be
00000300: 3011 f13e 2023 ff3e 3816 d3be 0c60 48be
00000310: 90f6 193d 00cc e83c 24c1 b3be 142f 733e
00000320: c4ce 23be cee5 c93e 267c c73e 14d2 24be
00000330: f038 f6be 1061 963d b8c5 fe3e 4000 32be
00000340: 1c79 0d3e b845 5bbe c82d 013e c06b f23d
00000350: eef1 d33e 0068 753a 320b f83e 8c57 933e
00000360: 14f6 bd3e 8621 8e3e c2a5 f5be 0ca2 79be
00000370: f84d 1c3e 801b 42bd 06da cbbe ba53 dbbe
00000380: 80c4 5fbd e037 a43c 2a2f fb3e e4b4 01be
00000390: 907f ee3e 0034 203b 98f3 80bd 6c56 1f3e
000003a0: 0c6e d83e 365e 87be 6843 603e 9098 6abd
000003b0: d66c e03e 181c 0f3e b4aa bdbe 3839 9abe
000003c0: 805b 333d 0cd2 423e 2461 d73e e405 103e
000003d0: 0055 f3bd 80de c33c 327e b2be 7432 7a3e
000003e0: aca0 c53e a26f b6be 88f3 b6bd 601e febe
000003f0: c841 9abe 74a0 a3be 6674 a8be 22e2 a83e

fc4.weight f4 [1, 21]
0.32138938 -0.21964401 -0.2602784 -0.24875546 0.30846083 0.39176965 -0.07453084 -0.32248402
0.44789732 0.20811146 0.39634073 -0.48710895 0.19515145 0.03842306 -0.24907929 -0.003702879
0.29411638 0.3166064 0.10502112 -0.49557853 0.44986975
00000000: 268d a43e 5cea 60be 3643 85be c0b9 7ebe
00000010: 94ee 9d3e 0896 c83e a0a3 98bd a01c a5be
00000020: cc52 e53e 2c1b 553e 2ced ca3e 5866 f9be
00000030: c8d5 473e 8061 1d3d a40e 7fbe 00ac 72bb
00000040: 6c96 963e 3c1a a23e 5015 d73d 78bc fdbe
00000050: 5455 e63e

batchnorm1.weight f4 [20]
1.0 1.0 1.0 1.0 1.0 1.0 1.0 1.0
1.0 1.0 1.0 1.0 1.0 1.0 1.0 1.0
1.0 1.0 1.0 1.0
00000000: 0000 803f 0000 803f 0000 803f 0000 803f
00000010: 0000 803f 0000 803f 0000 803f 0000 803f
00000020: 0000 803f 0000 803f 0000 803f 0000 803f
00000030: 0000 803f 0000 803f 0000 803f 0000 803f
00000040: 0000 803f 0000 803f 0000 803f 0000 803f

batchnorm1.bias f4 [20]
0.0 0.0 0.0 0.0 0.0 0.0 0.0 0.0
0.0 0.0 0.0 0.0 0.0 0.0 0.0 0.0
0.0 0.0 0.0 0.0
00000000: 0000 0000 0000 0000 0000 0000 0000 0000
00000010: 0000 0000 0000 0000 0000 0000 0000 0000
00000020: 0000 0000 0000 0000 0000 0000 0000 0000
00000030: 0000 0000 0000 0000 0000 0000 0000 0000
00000040: 0000 0000 0000 0000 0000 0000 0000 0000

batchnorm1.running_mean f4 [20]
0.0 0.0 0.0 0.0 0.0 0.0 0.0 0.0
0.0 0.0 0.0 0.0 0.0 0.0 0.0 0.0
0.0 0.0 0.0 0.0
00000000: 0000 0000 0000 0000 0000 0000 0000 0000
00000010: 0000 0000 0000 0000 0000 0000 0000 0000
00000020: 0000 0000 0000 0000 0000 0000 0000 0000
00000030: 0000 0000 0000 0000 0000 0000 0000 0000
00000040: 0000 0000 0000 0000 0000 0000 0000 0000

batchnorm1.running_var f4 [20]
1.0 1.0 1.0 1.0 1.0 1.0 1.0 1.0
1.0 1.0 1.0 1.0 1.0 1.0 1.0 1.0
1.0 1.0 1.0 1.0
00000000: 0000 803f 0000 803f 0000 803f 0000 803f
00000010: 0000 803f 0000 803f 0000 803f 0000 803f
00000020: 0000 803f 0000 803f 0000 803f 0000 803f
00000030: 0000 803f 0000 803f 0000 803f 0000 803f
00000040: 0000 803f 0000 803f 0000 803f 0000 803f

batchnorm2.weight f4 [20]
1.0 1.0 1.0 1.0 1.0 1.0 1.0 1.0
1.0 1.0 1.0 1.0 1.0 1.0 1.0 1.0
1.0 1.0 1.0 1.0
00000000: 0000 803f 0000 803f 0000 803f 0000 803f
00000010: 0000 803f 0000 803f 0000 803f 0000 803f
00000020: 0000 803f 0000 803f 0000 803f 0000 803f
00000030: 0000 803f 0000 803f 0000 803f 0000 803f
00000040: 0000 803f 0000 803f 0000 803f 0000 803f

batchnorm2.bias f4 [20]
0.0 0.0 0.0 0.0 0.0 0.0 0.0 0.0
0.0 0.0 0.0 0.0 0.0 0.0 0.0 0.0
0.0 0.0 0.0 0.0
00000000: 0000 0000 0000 0000 0000 0000 0000 0000
00000010: 0000 0000 0000 0000 0000 0000 0000 0000
00000020: 0000 0000 0000 0000 0000 0000 0000 0000
00000030: 0000 0000 0000 0000 0000 0000 0000 0000
00000040: 0000 0000 0000 0000 0000 0000 0000 0000

batchnorm2.running_mean f4 [20]
0.0 0.0 0.0 0.0 0.0 0.0 0.0 0.0
0.0 0.0 0.0 0.0 0.0 0.0 0.0 0.0
0.0 0.0 0.0 0.0
00000000: 0000 0000 0000 0000 0000 0000 0000 0000
00000010: 0000 0000 0000 0000 0000 0000 0000 0000
00000020: 0000 0000 0000 0000 0000 0000 0000 0000
00000030: 0000 0000 0000 0000 0000 0000 0000 0000
00000040: 0000 0000 0000 0000 0000 0000 0000 0000

batchnorm2.running_var f4 [20]
1.0 1.0 1.0 1.0 1.0 1.0 1.0 1.0
1.0 1.0 1.0 1.0 1.0 1.0 1.0 1.0
1.0 1.0 1.0 1.0
00000000: 0000 803f 0000 803f 0000 803f 0000 803f
00000010: 0000 803f 0000 803f 0000 803f 0000 803f
00000020: 0000 803f 0000 803f 0000 803f 0000 803f
00000030: 0000 803f 0000 803f 0000 803f 0000 803f
00000040: 0000 803f 0000 803f 0000 803f 0000 803f

batchnorm3.weight f4 [20]
1.0 1.0 1.0 1.0 1.0 1.0 1.0 1.0
1.0 1.0 1.0 1.0 1.0 1.0 1.0 1.0
1.0 1.0 1.0 1.0
00000000: 0000 803f 0000 803f 0000 803f 0000 803f
00000010: 0000 803f 0000 803f 0000 803f 0000 803f
00000020: 0000 803f 0000 803f 0000 803f 0000 803f
00000030: 0000 803f 0000 803f 0000 803f 0000 803f
00000040: 0000 803f 0000 803f 0000 803f 0000 803f

batchnorm3.bias f4 [20]
0.0 0.0 0.0 0.0 0.0 0.0 0.0 0.0
0.0 0.0 0.0 0.0 0.0 0.0 0.0 0.0
0.0 0.0 0.0 0.0
00000000: 0000 0000 0000 0000 0000 0000 0000 0000
00000010: 0000 0000 0000 0000 0000 0000 0000 0000
00000020: 0000 0000 0000 0000 0000 0000 0000 0000
00000030: 0000 0000 0000 0000 0000 0000 0000 0000
00000040: 0000 0000 0000 0000 0000 0000 0000 0000

batchnorm3.running_mean f4 [20]
0.0 0.0 0.0 0.0 0.0 0.0 0.0 0.0
0.0 0.0 0.0 0.0 0.0 0.0 0.0 0.0
0.0 0.0 0.0 0.0
00000000: 0000 0000 0000 0000 0000 0000 0000 0000
00000010: 0000 0000 0000 0000 0000 0000 0000 0000
00000020: 0000 0000 0000 0000 0000 0000 0000 0000
00000030: 0000 0000 0000 0000 0000 0000 0000 0000
00000040: 0000 0000 0000 0000 0000 0000 0000 0000

batchnorm3.running_var f4 [20]
1.0 1.0 1.0 1.0 1.0 1.0 1.0 1.0
1.0 1.0 1.0 1.0 1.0 1.0 1.0 1.0
1.0 1.0 1.0 1.0
00000000: 0000 803f 0000 803f 0000 803f 0000 803f
00000010: 0000 803f 0000 803f 0000 803f 0000 803f
00000020: 0000 803f 0000 803f 0000 803f 0000 803f
00000030: 0000 803f 0000 803f 0000 803f 0000 803f
00000040: 0000 803f 0000 803f 0000 803f 0000 803f
